cifar_net.pth (torch, 251167 bytes, 10 tensors)

conv1.weight f4 [6, 3, 5, 5]
-0.01839514 -0.08188113 0.26767066 0.20451042 -0.35487399 -0.07157123 -0.050859388 0.28442353
0.014009244 -0.44104078 -0.24172351 -0.26547742 -0.4260661 -0.46956027 -0.2545664 -0.20571777
-0.3416841 -0.34244114 -0.0631837 0.19928455 0.2549398 0.048343994 0.28028598 0.06138132
-0.012533586 0.11215171 -0.17827967 0.3200727 0.3936995 -0.26274827 0.21237619 0.1934096
0.2777865 0.1272373 -0.22963093 0.06928575 0.033399895 -0.25525752 -0.08041497 0.045716908
0.079442345 -0.13656 -0.15717031 0.1892247 0.40632775 0.4358575 0.17754734 0.5158354
0.41297698 0.17392313 -0.034623515 -0.22567491 0.21422236 0.21670996 -0.20909889 0.040610973
0.06952098 0.28484672 -0.08008278 -0.12534374 -0.12308668 -0.052754216 -0.3200251 -0.3366018
-0.02230708 -0.23464432 -0.33689228 -0.1289225 -0.0907128 0.06710028 0.23336771 -0.11846149
0.028761143 0.01628607 -0.07748846 -0.1678395 -0.22126259 -0.1759202 -0.3410097 -0.074278496
0.21034528 0.34330288 0.6608135 0.5408365 0.5980637 0.24744812 0.33969805 0.45540932
0.3903285 0.5039489 -0.32648474 -0.46330193 -0.2195769 -0.12961994 -0.13353738 -0.12264393
-0.3861235 -0.2594816 -0.24743222 -0.091583885 -0.11338096 -0.45297194 -0.17392378 -0.561526
-0.4185581 0.011443455 0.050378457 0.3449725 0.25296718 0.021876883 0.14009424 -0.05115812
0.1947072 0.20137148 0.21386783 -0.09287482 -0.35184458 -0.46734032 -0.5069514 -0.37645188
-0.018041715 -0.20691493 -0.10234072 0.025527697 -0.15170409 -0.05090477 -0.2374894 -0.02949324
-0.31090656 -0.21652159 0.17892496 0.07765005 0.31165206 0.23250422 0.17225316 0.2275062
-0.022544287 0.2750748 0.11681958 0.14850014 0.036588345 -0.07484507 -0.11561508 -0.34862825
-0.2880007 0.35039553 0.26299232 0.2717322 0.19214684 0.14924689 0.11811279 0.009183662
0.17394222 0.22877319 0.34516427 0.14418855 0.2670131 -0.1566077 -0.108941905 -0.038026337
0.4917557 0.2129449 -0.25050846 -0.44387895 -0.3395725 0.25110283 -0.06444798 -0.3785902
-0.29409915 -0.2713163 -0.088982746 -0.05909685 -0.08168501 -0.08277209 -0.07931718 0.00781609
-0.18523498 -0.3236863 -0.090623796 -0.092202924 0.044766393 -0.061707642 -0.28818402 -0.3077971
-0.44441622 0.35352424 0.1553396 -0.15718557 -0.45631692 -0.29577515 0.1827395 -0.01703081
-0.22168294 -0.2719675 -0.08708818 0.03240822 -0.058289323 0.010141949 0.11591683 -0.012648703
0.040018007 -0.00695919 0.04218388 -0.068619154 -0.13394667 0.10830103 0.2052884 -0.019778151
-0.13442956 -0.15699337 0.1913228 0.2515402 -0.045425035 -0.28848988 -0.2016345 0.4079903
0.14038599 -0.14936821 -0.19010237 -0.12754695 0.23607886 0.03939469 0.28598884 0.15747207
0.17178841 0.15171249 -0.118317306 0.14357421 -0.015947303 0.072804816 -0.29152715 -0.12654522
0.1919717 0.24666177 -0.11104451 -0.39899835 -0.145897 0.35327083 0.20163351 -0.19693178
-0.4513682 -0.01801081 0.45310822 0.26628384 -0.23577842 -0.18360636 -0.11423294 0.3251989
0.07877996 -0.21132249 -0.17124613 -0.12297832 0.08183001 0.009695333 -0.012344695 -0.19193114
00000000: 68b1 96bc 4bb1 a7bd 210c 893e 2e6b 513e
00000010: 0bb2 b5be f093 92bd ef51 50bd f69f 913e
00000020: 0787 653c 19d0 e1be 5e86 77be a8ec 87be
00000030: 5625 dabe 346a f0be 8756 82be aea7 52be
00000040: 38f1 aebe 7254 afbe 7566 81bd 4011 4c3e
00000050: 7887 823e 5a04 463d a581 8f3e fb6a 7b3d
00000060: ab59 4dbc ccaf e53d f28e 36be 92e0 a33e
00000070: fb92 c93e f186 86be 2579 593e 2b0d 463e
00000080: 083a 8e3e 7f4a 023e 5f24 6bbe b0e5 8d3d
00000090: 54ce 083d 1db1 82be 9bb0 a4bd a741 3b3d
000000a0: abb2 a23d 62d6 0bbe 41f1 20be 1fc4 413e
000000b0: 310a d03e b728 df3e f8ce 353e ca0d 043f
000000c0: b871 d33e e818 323e 63d1 0dbd 5317 67be
000000d0: 1b5d 5b3e 37e9 5d3e 051e 56be b157 263d
000000e0: 0461 8e3d 6ed7 913e 7102 a4bd 1c5a 00be
000000f0: df14 fcbd ce14 58bd 54da a3be 1257 acbe
00000100: 56bd b6bc 9a46 70be 257d acbe 4304 04be
00000110: a2c7 b9bd df6b 893d f2f7 6e3e f09b f2bd
00000120: 7d9c eb3c 5d6a 853c 45b2 9ebd 1ede 2bbe
00000130: a992 62be 6d24 34be d398 aebe 531f 98bd
00000140: c164 573e 65c5 af3e 132b 293f 4374 0a3f
00000150: b41a 193f 0a63 7d3e e7ec ad3e 692b e93e
00000160: 23d9 c73e cc02 013f 0229 a7be e935 edbe
00000170: c4d8 60be 17bb 04be 06be 08be be2c fbbd
00000180: fbb1 c5be c6da 84be df5e 7dbe 5590 bbbd
00000190: 4734 e8bd f0eb e7be 1319 32be 2bc0 0fbf
000001a0: 3f4d d6be 547d 3b3c a459 4e3d 3ca0 b03e
000001b0: ea84 813e 2637 b33c dd74 0f3e 2d8b 51bd
000001c0: 5361 473e 5334 4e3e 2b00 5b3e 2735 bebd
000001d0: f924 b4be 3b47 efbe 91c7 01bf 4dbe c0be
000001e0: 38cc 93bc 82e1 53be 0398 d1bd 761f d13c
000001f0: 5158 1bbe 8581 50bd 6c30 73be cf9b f1bc
00000200: 252f 9fbe d6b7 5dbe 1b38 373e fd06 9f3d
00000210: dc90 9f3e 9615 6e3e 2263 303e 63f7 683e
00000220: ccae b8bc 9bd6 8c3e 1b3f ef3d 6c10 183e
00000230: a9dd 153d 5f48 99bd 99c7 ecbd 677f b2be
00000240: d474 93be 0b67 b33e eea6 863e 7c20 8b3e
00000250: 24c2 443e 2dd4 183e 1ee5 f13d 1277 163c
00000260: e91d 323e 8543 6a3e 5fb9 b03e 2aa6 133e
00000270: f1b5 883e c55d 20be ef1c dfbd 81c1 1bbd
00000280: 67c7 fb3e 3a0e 5a3e a542 80be 1a44 e3be
00000290: 72dc adbe 8d90 803e 4dfd 83bd 93d6 c1be
000002a0: 2a94 96be f8e9 8abe 963c b6bd 8a0f 72bd
000002b0: 784a a7bd 6a84 a9bd 0c71 a2bd 0f0f 003c
000002c0: 3dae 3dbe 36ba a5be f898 b9bd e3d4 bcbd
000002d0: f75c 373d 27c1 7cbd db8c 93be 9597 9dbe
000002e0: 868a e3be 2101 b53e 5811 1f3e 41f5 20be
000002f0: 5fa2 e9be d76f 97be 1020 3b3e 3284 8bbc
00000300: da00 63be 533f 8bbe 4a5b b2bd 7bbe 043d
00000310: c9c0 6ebd 6b2a 263c ce65 ed3d 813c 4fbc
00000320: ece9 233d eb09 e4bb 01c9 2c3d 3388 8cbd
00000330: 5129 09be eecc dd3d 1f37 523e ca05 a2bc
00000340: e7a7 09be dfc2 20be 20ea 433e e1c9 803e
00000350: 9a0f 3abd f2b4 93be 4679 4ebe 1be4 d03e
00000360: 58c1 0f3e fbf3 18be 32aa 42be ab9b 02be
00000370: a8be 713e 545c 213d 216d 923e 5c40 213e
00000380: 4de9 2f3e 855a 1b3e 5850 f2bd 1e05 133e
00000390: eba3 82bc b11a 953d 0c43 95be 1295 01be
000003a0: 3b94 443e e794 7c3e 4e6b e3bd 8349 ccbe
000003b0: 0666 15be eadf b43e 0479 4e3e 7ca8 49be
000003c0: bc19 e7be 688b 93bc cdfd e73e 5b56 883e
000003d0: e66f 71be 4e03 3cbe f6f2 e9bd 7880 a63e
000003e0: 6357 a13d ec64 58be 255b 2fbe 0fdc fbbd
000003f0: 7e96 a73d 2dd9 1e3c 6741 4abc 9989 44be

conv1.bias f4 [6]
0.12053534 -0.4751389 -0.2156494 -0.19441046 0.107793085 0.06545251
00000000: 3bdb f63d 6845 f3be 32d3 5cbe 8913 47be
00000010: 9fc2 dc3d f70b 863d

conv2.weight f4 [16, 6, 5, 5]
-0.028017886 -0.037932105 0.036895424 0.05761766 -0.20183776 0.11083252 0.09058684 0.025790496
-0.18677111 -0.09418531 -0.0928623 0.016017847 -0.055975456 0.03782451 0.09439218 0.045666568
0.01784412 0.034041204 0.18085074 0.0155825 -0.051583137 0.17865255 0.47714064 0.32033718
-0.17157231 0.025225818 -0.03352667 -0.09241143 -0.090739354 -0.06288449 -0.217768 -0.06811748
-0.056259852 -0.032378055 0.08245329 -0.033173144 -0.14320137 0.0141662005 -0.10442274 -0.09018188
-0.0857029 0.014951021 -0.04486415 -0.06815971 -0.024547074 0.10072945 0.034179296 -0.101069584
-0.038179368 -0.05316765 -0.06079804 -0.08795005 -0.19483453 -0.32649156 -0.23277324 -0.1283545
-0.116643235 -0.27668795 -0.2682766 0.12407253 -0.2874107 -0.2124879 -0.29474044 0.13021252
0.34521285 -0.27621415 -0.07500213 0.042777453 0.39272436 -0.022675607 -0.024011066 0.19896087
0.35683036 0.2242202 -0.31716916 -0.14241706 -0.008246798 -0.09526878 0.01684457 0.18635161
-0.09500198 -0.08752061 0.14846328 0.11585675 -0.2215146 -0.0125014195 -0.010042102 0.06322324
-0.110365905 -0.249519 -0.007041318 0.03692811 -0.03663576 -0.16997682 0.043560766 -0.12544711
0.024425123 0.110913716 0.051092826 0.25126356 -0.16205113 -0.18573381 -0.05558858 -0.09337831
-0.19961412 -0.13837259 -0.02527029 -0.030080128 -0.09673806 0.00034643005 -0.034768857 -0.12025289
0.05792586 0.057438817 -0.02128957 0.0005080445 -0.09754995 0.005900334 -0.010971321 -0.04293574
0.032174036 0.1461301 0.07113202 -0.023081543 0.06518355 0.03574099 -0.046438023 -0.08333916
0.028897073 -0.019558894 0.005838828 -0.042122774 0.08981875 0.030758595 -0.10165477 0.015807988
0.06296165 0.12405556 0.008114921 0.11000043 -0.16225119 -0.14996493 0.023001473 -0.042943425
0.036457524 -0.17219661 -0.19754238 -0.044019468 0.098923884 0.23995674 -0.070730224 -0.15233666
-0.014627726 0.01048916 -0.03293259 0.0076343263 -0.0011448623 -0.09807661 0.042776477 -0.05650319
-0.08878132 -0.024810612 0.015019002 0.097706854 0.013987338 -0.05896184 -0.002584213 0.010761584
-0.04448078 -0.06557397 -0.12504868 -0.08246314 0.051704913 -0.11946108 -0.05740941 -0.14663465
-0.05556606 -0.1164868 -0.12651998 -0.008839185 -0.16512276 -0.027968712 -0.13891189 -0.12279662
-0.13380085 -0.19898593 -0.13643332 -0.07764741 -0.13715751 -0.09106817 -0.09039106 -0.10272815
-0.19290797 -0.11849842 -0.1046593 0.03156372 0.0174247 -0.10679167 -0.10403322 -0.07331532
-0.0972446 -0.1637005 -0.20456406 -0.13718656 -0.043806195 -0.14003888 -0.17078494 -0.10664332
0.07080573 0.015734823 -0.08241376 -0.09544868 -0.03527379 0.0032348116 -0.09634171 -0.08674972
-0.09947737 -0.008044018 -0.052534528 -0.13171956 -0.15239671 -0.0005369204 0.07862484 -0.040199053
-0.14215237 -0.026680488 0.044207126 0.096929274 0.066422924 -0.20768385 -0.018101353 0.0047605825
0.02621811 -0.17758822 0.024606977 -0.2179758 -0.09406133 -0.036293708 -0.09205585 0.20198281
-0.17867328 -0.108856134 -0.12519322 0.14627911 0.31918988 -0.09100169 -0.047457855 -0.12185952
0.16834635 0.21466857 0.04757218 0.06715845 -0.021577016 -0.040304672 0.021497656 0.03929196
00000000: c485 e5bc b25e 1bbd a81f 173d 7f00 6c3d
00000010: 8fae 4ebe 29fc e23d 9885 b93d 9746 d33c
00000020: ed40 3fbe 3ae4 c0bd 972e bebd dc37 833c
00000030: 8546 65bd e0ed 1a3d b050 c13d de0c 3b3d
00000040: d52d 923c ca6e 0b3d f030 393e be4d 7f3c
00000050: d748 53bd b2f0 363e c74b f43e 3c03 a43e
00000060: a7b0 2fbe 60a6 ce3c 4353 09bd 3442 bdbd
00000070: 8ed5 b9bd 95c9 80bd 93fe 5ebe 2d81 8bbd
00000080: bb70 66bd da9e 04bd 45dd a83d 90e0 07bd
00000090: 61a3 12be 5a19 683c 97db d5bd 47b1 b8bd
000000a0: 0185 afbd 21f5 743c 79c3 37bd 5197 8bbd
000000b0: f216 c9bc 3e4b ce3d 97ff 0b3d 92fd cebd
000000c0: f861 1cbd 52c6 59bd 5e07 79bd 281f b4bd
000000d0: b482 47be e729 a7be 1c5c 6ebe 5d6f 03be
000000e0: a6e2 eebd 0baa 8dbe 8d5b 89be bd19 fe3d
000000f0: 7f27 93be 6e96 59be 38e8 96be 6e56 053e
00000100: bdbf b03e f16b 8dbe b79a 99bd 6937 2f3d
00000110: 2b13 c93e 32c2 b9bc dbb2 c4bc 66bc 4b3e
00000120: 78b2 b63e fb99 653e ff63 a2be c7d5 11be
00000130: 941d 07bc 471c c3bd a0fd 893c f5d2 3e3e
00000140: 6690 c2bd 013e b3bd c206 183e 4e46 ed3d
00000150: b9d4 62be c1d2 4cbc a187 24bc 307b 813d
00000160: 8507 e2bd e981 7fbe dbba e6bb ee41 173d
00000170: 610f 16bd 670e 2ebe c66c 323d 3575 00be
00000180: 3217 c83c bb26 e33d b646 513d 9ea5 803e
00000190: bbf0 25be 0131 3ebe dab0 63bd 213d bfbd
000001a0: a567 4cbe 8bb1 0dbe a403 cfbc 9a6a f6bc
000001b0: 9b1e c6bd 0ea1 b539 ca69 0ebd 2647 f6bd
000001c0: ab43 6d3d f744 6b3d 7767 aebc 4a2e 053a
000001d0: 45c8 c7bd 9757 c13b 0ec1 33bc 63dd 2fbd
000001e0: ecc8 033d 21a3 153e aaad 913d 8115 bdbc
000001f0: f47e 853d 2565 123d cc35 3ebd b9ad aabd
00000200: 8eb9 ec3c f939 a0bc a453 bf3b ee88 2cbd
00000210: e5f2 b73d 73f9 fb3c 6030 d0bd c17f 813c
00000220: 0af2 803d d710 fe3d 72f4 043c e847 e13d
00000230: 2d25 26be 6890 19be 966d bc3c 72e5 2fbd
00000240: 7c54 153d 4f54 30be 8d48 4abe c24d 34bd
00000250: 9b98 ca3d 38b7 753e 02db 90bd 24fe 1bbe
00000260: 21a9 6fbc bada 2b3c 53e4 06bd 5f29 fa3b
00000270: 340f 96ba 64dc c8bd 6336 2f3d e46f 67bd
00000280: fbd2 b5bd a03f cbbc 4312 763c 881a c83d
00000290: 262b 653c f881 71bd e65b 29bb 5b51 303c
000002a0: 7a31 36bd a54b 86bd c30c 00be 6fe2 a8bd
000002b0: 88c8 533d 03a8 f4bd 2126 6bbd 6527 16be
000002c0: 3d99 63bd a290 eebd 748e 01be 3bd2 10bc
000002d0: f115 29be a41e e5bc eb3e 0ebe cb7c fbbd
000002e0: 1703 09be f8c2 4bbe 2db5 0bbe 9b05 9fbd
000002f0: 0573 0cbe f381 babd f31e b9bd 2363 d2bd
00000300: ab89 45be 4daf f2bd 9d57 d6bd f648 013d
00000310: 3fbe 8e3c 97b5 dabd 5e0f d5bd 5826 96bd
00000320: 2d28 c7bd 1ba1 27be 3e79 51be a27a 0cbe
00000330: 206e 33bd 5a66 0fbe 3fe2 2ebe d067 dabd
00000340: 9802 913d 51e6 803c 8cc8 a8bd 997a c3bd
00000350: 407b 10bd 22ff 533b cd4e c5bd d6a9 b1bd
00000360: cbba cbbd 0fcb 03bc 722e 57bd 7ee1 06be
00000370: e20d 1cbe 1ec0 0cba 0f06 a13d c3a7 24bd
00000380: 6490 11be 0a91 dabc 8812 353d db82 c63d
00000390: be08 883d 13ab 54be 4a49 94bc a9fe 9b3b
000003a0: 5dc7 d63c b0d9 35be 9294 c93c 0c35 5fbe
000003b0: 3aa3 c0bd b6a8 14bd c787 bcbd 95d4 4e3e
000003c0: 21f6 36be f7ef debd a732 00be 31ca 153e
000003d0: db6c a33e 185f babd 2b63 42bd 7c91 f9bd
000003e0: fc62 2c3e 14d2 5b3e 0cdb 423d 5f8a 893d
000003f0: 48c2 b0bc 8316 25bd da1b b03c 9bf0 203d

conv2.bias f4 [16]
0.27535355 0.37673923 0.6847941 -0.018803064 0.09098383 -0.64700085 -0.261332 -0.13410766
-0.037129983 0.17062183 0.33521926 -0.5902983 -0.24847037 -0.32531565 -0.532221 0.237492
00000000: 24fb 8c3e f7e3 c03e ab4e 2f3f e208 9abc
00000010: bb55 ba3d d9a1 25bf 4fcd 85be 8553 09be
00000020: 9c15 18bd 7db7 2e3e dca1 ab3e ca1d 17bf
00000030: 046f 7ebe c68f a6be a33f 08bf 1a31 733e

fc1.weight f4 [120, 400]
0.08052703 0.015931299 0.03960286 0.00035938635 0.030350512 -0.102914125 0.0632685 -0.010886271
-0.07783878 -0.026867466 0.04414415 -0.00981621 -0.04532787 0.0044344217 0.037418503 0.09203879
0.10563351 0.004098931 0.00464256 0.059929546 -0.034704585 -0.050134204 0.03388382 0.05070502
0.13119064 -0.05265101 -0.091604024 -0.09719737 -0.076377876 0.03880592 -0.08584895 -0.05762011
-0.045880638 -0.056965705 0.042320564 -0.05434537 -0.057662234 -0.07381966 -0.066847585 0.03134323
-0.017650064 -0.010313433 0.03197391 0.00060300867 0.017287005 0.029728511 0.024723345 0.026114533
-0.03071071 -0.029060068 -0.020444326 0.07535411 -0.00865552 -0.011562976 0.11055621 -0.14864028
0.056365404 -0.059267648 -0.068094656 -0.09641344 -0.11628766 -0.11003543 -0.05434606 -0.06841679
-0.16309948 -0.05898432 -0.067258835 -0.0006958837 -0.02379028 -0.041008595 0.09240138 0.11132835
0.10141573 -0.13731502 -0.053032007 0.014068614 0.042791698 0.057692874 0.12045258 0.15965985
0.07223704 0.016605219 -0.09003736 -0.019357262 0.1026664 -0.0015660414 0.124636926 -0.05409319
-0.017250165 0.08821478 -0.028801948 -0.0117722 -0.09857486 -0.11142196 0.040441725 -0.06412593
-0.1279839 -0.067420684 -0.08308618 -0.078828834 0.0056841676 0.006590406 -0.027869584 -0.11480044
-0.035866033 0.015977934 0.033709753 -0.05618633 -0.08618668 -0.07666089 0.0144204255 0.100101106
-0.011389865 0.02191118 -0.07359513 0.002520967 0.06341971 -0.039620053 -0.019900814 -0.06524897
-0.07935399 0.02137908 -0.0500783 0.048421204 -0.072233684 0.07770376 0.065525115 -0.03892631
0.06401105 0.021528535 -0.04002313 -0.050951656 0.0071277954 -0.023577373 0.016151166 -0.08760688
-0.10482617 -0.100125164 -0.08519301 -0.023478532 0.04779714 -0.1202616 -0.20207973 -0.13090773
0.09889969 0.21599005 0.12142571 0.0391691 0.14786933 0.12325533 0.02991485 -0.067521185
-0.04358804 -0.005765374 -0.0699605 -0.124330156 -0.08755412 0.020214379 0.013081899 -0.021494683
-0.090566486 0.06612587 -0.00014657296 0.057483487 -0.066816896 0.036834106 0.06600382 0.11058859
0.014893084 0.027193623 -0.056649305 0.06426615 0.10993452 0.13193321 0.05714966 0.06582513
0.04458392 -0.023635428 -0.0052479743 -0.0037028552 -0.01872132 0.020699702 0.111142814 0.037242677
0.039116055 -0.009494027 0.02359177 -0.02935008 -0.014974611 -0.05984218 -0.023594841 0.011848871
-0.06574585 -0.06863004 -0.015337451 0.11187249 -0.0641983 -0.14781249 -0.1516521 -0.03955437
-0.019905312 0.003638275 -0.053494766 -0.0011766899 -0.04635255 0.04733436 -0.026594045 -0.03115267
-0.032855142 0.037455913 0.006923572 0.039305974 -0.029627811 -0.0036157197 0.050750982 -0.0007362999
-0.037613675 0.038569815 0.04084571 0.009023618 -0.04492197 0.035686214 -0.021988569 0.008881446
0.0003922071 -0.055780966 -0.11576642 -0.004657867 0.039296377 0.059042256 -0.09882673 -0.001212442
-0.048239984 -0.015726602 0.033032905 -0.09817589 -0.034831777 -0.07321367 -0.0028386652 0.043791875
-0.06888437 -0.05205175 -0.028491523 -0.016446436 -0.056827117 0.0021157744 -0.031903822 -0.11575801
-0.07054514 -0.011041815 0.0027033202 -0.0009377427 0.028269792 0.0898729 0.07175706 -0.10796424
00000000: 5beb a43d 5b82 823c 9c36 223d 056c bc39
00000010: a3a1 f83c a4c4 d2bd ea92 813d 545c 32bc
00000020: f069 9fbd 2919 dcbc 7fd0 343d 2bd4 20bc
00000030: b7a9 39bd a04e 913b 2544 193d d57e bc3d
00000040: 6256 d83d 5350 863b 9e20 983b af78 753d
00000050: 6526 0ebd 8659 4dbd c3c9 0a3d 11b0 4f3d
00000060: d756 063e 96a8 57bd e49a bbbd 6a0f c7bd
00000070: 016c 9cbd f5f2 1e3d 93d1 afbd 1103 6cbd
00000080: 56ed 3bbd df54 69bd 5458 2d3d 4099 5ebd
00000090: 3c2f 6cbd c32e 97bd 63e7 88bd c261 003d
000000a0: de96 90bc acf9 28bc 13f7 023d 3a13 1e3a
000000b0: 7a9d 8d3c 3589 f33c 9d88 ca3c 25ee d53c
000000c0: 0795 fbbc 610f eebc dc7a a7bc 4153 9a3d
000000d0: e2cf 0dbc a372 3dbc 4b6b e23d 2835 18be
000000e0: 69df 663d a2c2 72bd 3675 8bbd 6974 c5bd
000000f0: 3a28 eebd 415a e1bd f999 5ebd 1a1e 8cbd
00000100: 8d03 27be 8b99 71bd 00bf 89bd f76b 36ba
00000110: d5e3 c2bc a1f8 27bd ef3c bd3d 1e00 e43d
00000120: 0db3 cf3d 4f9c 0cbe 1738 59bd 0b80 663c
00000130: 5946 2f3d 5d4f 6c3d d8af f63d df7d 233e
00000140: 03f1 933d ab07 883c 8265 b8bd 1f93 9ebc
00000150: c342 d23d a143 cdba a541 ff3d d290 5dbd
00000160: 3850 8dbc f3a9 b43d 10f2 ebbc 30e0 40bc
00000170: 9ee1 c9bd 3231 e4bd 39a6 253d 7554 83bd
00000180: 360e 03be db13 8abd 1629 aabd 0371 a1bd
00000190: 4142 ba3b 55f4 d73b c14e e4bc 7e1c ebbd
000001a0: 43e8 12bd 28e4 823c 3d13 0a3d a323 66bd
000001b0: a482 b0bd 6200 9dbd a643 6c3c cf01 cd3d
000001c0: 8e9c 3abc 137f b33c 0bb9 96bd cf36 253b
000001d0: 31e2 813d a348 22bd 0807 a3bc 41a1 85bd
000001e0: 5884 a2bd 2e23 af3c e71e 4dbd 5055 463d
000001f0: 41ef 93bd 2623 9f3d 0832 863d 3271 1fbd
00000200: 3a18 833d 9c5c b03c 4bef 23bd afb2 50bd
00000210: 4890 e93b 5625 c1bc 734f 843c 3c6b b3bd
00000220: 1aaf d6bd 6c0e cdbd ac79 aebd 0d56 c0bc
00000230: efc6 433d b74b f6bd fded 4ebe ad0c 06be
00000240: ec8b ca3d 7f2c 5d3e 0bae f83d c76f 203d
00000250: 0f6b 173e 4a6d fc3d fd0f f53c 8c48 8abd
00000260: 5f89 32bd 76eb bcbb 7347 8fbd cfa0 febd
00000270: 934f b3bd a098 a53c 7655 563c 9e15 b0bc
00000280: ec7a b9bd 006d 873d 61b1 19b9 ce73 6b3d
00000290: 4cd7 88bd 5cdf 163d 032d 873d 457c e23d
000002a0: 1f02 743c 29c5 de3c 1a09 68bd f99d 833d
000002b0: 5a25 e13d 8019 073e c315 6a3d 53cf 863d
000002c0: a19d 363d 169f c1bc 33f7 abbb 9aab 72bb
000002d0: 745d 99bc 6c92 a93c d89e e33d c78b 183d
000002e0: 2838 203d d68c 1bbc 8743 c13c 946f f0bc
000002f0: 1258 75bc 131d 75bd f849 c1bc c421 423c
00000300: c3a5 86bd e88d 8cbd ef49 7bbc 671d e53d
00000310: 667a 83bd 285c 17be b04a 1bbe c303 22bd
00000320: 7710 a3bc 2070 6e3b 541d 5bbd 293b 9aba
00000330: 2cdc 3dbd ade1 413d c1db d9bc e233 ffbc
00000340: 1d93 06bd 5f6b 193d 22df e23b 4dff 203d
00000350: 06b6 f2bc b6f5 6cbb 43e0 4f3d 4004 41ba
00000360: cc10 1abd 62fb 1d3d d54d 273d ccd7 133c
00000370: 1a00 38bd b52b 123d 5f21 b4bc 7c83 113c
00000380: 25a1 cd39 957a 64bd f216 edbd 05a1 98bb
00000390: 3df5 203d 4bd6 713d ab65 cabd cdea 9eba
000003a0: 4a97 45bd 13d5 80bc 834d 073d 7110 c9bd
000003b0: c4ab 0ebd 0cf1 95bd e608 3abb 1c5f 333d
000003c0: 4013 8dbd 3734 55bd 0e67 e9bc adba 86bc
000003d0: 8dc3 68bd cea8 0a3b 95ad 02bd 8912 edbd
000003e0: f879 90bd bbe8 34bc 302a 313b d9d2 75ba
000003f0: 0d96 e73c 480f b83d 5ef5 923d 5b1c ddbd

fc1.bias f4 [120]
-0.08125623 0.125208 -0.1518282 0.049742334 -0.037501447 0.07162814 0.070204616 0.1060112
-0.07825097 0.071019575 -0.044121735 0.2636853 -0.025261072 0.10362484 0.0027644902 -0.027114635
-0.066934094 0.13134986 -0.025991622 0.08506179 -0.037715375 0.00040126225 -0.16153242 -0.052074213
0.13531683 0.09065235 -0.014626823 -0.12806945 -0.026339252 -0.018624762 -0.09983104 -0.05135493
0.039570685 0.11639912 0.03258611 0.017306121 -0.06874636 0.12766826 -0.061683916 0.010434472
0.03433326 0.13971937 -0.08530851 0.0041925097 0.06311898 0.04934728 -0.0053290846 0.0740744
0.06846989 -0.048385516 0.02964113 0.028675897 0.06980219 -0.04818508 0.12035898 -0.00070317916
0.06651444 0.0511454 0.048115276 0.0674024 0.050418947 0.14400922 -0.089872964 -0.014920104
-0.09752023 0.088240825 0.11217781 0.033581685 -0.02596298 0.006511001 -0.0011922257 0.036492214
0.059123807 -0.010603976 -0.004991813 -0.07639519 -0.06565313 0.071937874 -0.009933951 -0.025898702
-0.07322005 0.037592884 0.050063215 -0.11003252 -0.13738802 0.04206485 0.125863 -0.016208457
0.017362403 -0.047008276 0.17896914 0.031372186 -0.056469664 -0.013873564 -0.030561619 -0.046468426
-0.034871187 0.034650262 0.027768573 -0.053760886 0.044940915 0.084030055 0.004323701 0.09232776
-0.024715539 -0.027377069 0.010722976 0.029468818 -0.04639955 0.034519643 0.14688832 -0.053975813
0.004859532 -0.06381718 0.10114364 -0.017575575 0.01973754 -0.005930438 0.061543476 0.121086024
00000000: ab69 a6bd 8736 003e da78 1bbe 9ebe 4b3d
00000010: 1e9b 19bd c6b1 923d 70c7 8f3d 661c d93d
00000020: 0b42 a0bd b672 913d feb8 34bd c201 873e
00000030: 4ff0 cebc 4339 d43d 732c 353b 831f debc
00000040: be14 89bd 9480 063e 62ec d4bc e034 ae3d
00000050: 707b 1abd 8260 d239 c168 25be c54b 55bd
00000060: 7f90 0a3e f0a7 b93d 58a5 6fbc a324 03be
00000070: 6ac5 d7bc f592 98bc 3774 ccbd 8c59 52bd
00000080: df14 223d a962 ee3d 0379 053d 91c5 8d3c
00000090: e4ca 8cbd 78bb 023e 46a8 7cbd 59f5 2a3c
000000a0: 08a1 0c3d 9812 0f3e 3ab6 aebd 5261 893b
000000b0: 8644 813d 6020 4a3d 9a9f aebb 52b4 973d
000000c0: f139 8c3d e42f 46bd f4d1 f23c b7e9 ea3c
000000d0: 73f4 8e3d b85d 45bd c57e f63d 8e55 38ba
000000e0: b938 883d d77d 513d 8614 453d 450a 8a3d
000000f0: 1984 4e3d 2777 133e 510f b8bd 7473 74bc
00000100: b0b8 c7bd 9bb7 b43d 7bbd e53d f38c 093d
00000110: 51b0 d4bc 3c5a d53b 7544 9cba dc78 153d
00000120: ce2b 723d 4dbc 2dbc 5d92 a3bb 1575 9cbd
00000130: 2675 86bd 2a54 933d 03c2 22bc 8429 d4bc
00000140: 65f4 95bd fffa 193d 160f 4d3d bb58 e1bd
00000150: 72af 0cbe 314c 2c3d 3be2 003e 99c7 84bc
00000160: 993b 8e3c c08b 40bd b043 373e 1f80 003d
00000170: bc4c 67bd f24d 63bc 5c5c fabc ad55 3ebd
00000180: 17d5 0ebd 6fed 0d3d eb7a e33c 6034 5cbd
00000190: f713 383d f317 ac3d d5ad 8d3b 5616 bd3d
000001a0: 3e78 cabc e045 e0bc 6caf 2f3c 9768 f13c
000001b0: 740d 3ebd 7864 0d3d e469 163e be15 5dbd
000001c0: b63c 9f3b 95b2 82bd 6624 cf3d a7fa 8fbc
000001d0: 9fb0 a13c 1f54 c2bb 0315 7c3d f3fb f73d

fc2.weight f4 [84, 120]
-0.009657241 -0.048878454 0.0009599298 -0.14010291 0.035132576 0.073758125 0.02220045 0.0073076175
0.078196734 0.045704555 -0.0520818 0.044627916 -0.07531706 -0.038696576 0.0019481288 0.009668798
-0.06786156 0.02513428 -0.08043889 -0.060170144 -0.07518492 -0.10020371 0.12779821 0.08683056
-0.060476013 0.031358868 -0.12180373 -0.12559329 -0.04144185 0.0783821 -0.01664355 0.031557564
-0.08610328 -0.0892272 -0.09886174 -0.07486113 0.06413856 0.08020534 0.145534 -0.08416662
0.09037705 -0.003349367 -0.14043993 0.16355103 -0.084375516 -0.007559297 0.0011971832 -0.15470004
-0.0060781077 0.012121113 -0.0071542566 -0.08088859 -0.18488441 0.08834659 -0.010035953 0.09355992
-0.053490806 0.07904499 -0.1531849 -0.12627853 0.02384458 -0.004125003 -0.023874108 -0.050578747
-0.076506145 -0.035050966 0.087367274 -0.046407197 0.0660253 -0.038288888 -0.008595265 0.02959345
0.023116186 0.009775811 0.034706242 -0.003979983 -0.12736736 -0.039019052 -0.05897027 -0.048224166
0.07575293 0.033774704 -0.022465974 0.0041389405 0.118915774 0.006924281 -0.11795066 0.045657493
0.056830246 -0.111465566 -0.11051467 -0.047583487 0.0969543 -0.062339257 0.062634304 -0.07364706
-0.074903734 0.032166805 0.16298452 0.022418397 -0.14418414 0.07464339 0.12613751 0.029130602
0.063050434 0.10970783 -0.03199297 0.05614055 0.03251257 -0.028717352 0.058393095 0.11567786
-0.07697607 0.03194134 0.19837345 -0.012070999 -0.013197433 0.04422483 -0.11131569 0.02440788
-0.027033946 0.046013627 0.05292545 0.07057473 0.038421415 0.047205508 0.039537933 -0.042474326
0.02989188 -0.07184619 0.055683896 -0.037714712 -0.035444062 0.06276989 -0.07800411 -0.017189994
-0.09632837 -0.085950576 0.034415454 0.0130199 -0.08470808 -0.075929135 0.0480116 0.077153265
-0.033454265 0.011330456 -0.008916048 -0.011181974 0.07805772 0.032438837 -0.002484784 -0.090557195
-0.013321623 -0.0007992044 0.03342604 0.060622543 -0.01802976 0.06660696 -0.039805382 -0.054240122
0.085601166 -0.0006359494 -0.06517747 -0.06276964 -0.059206825 0.032758847 -0.028699476 -0.010487914
-0.08098183 0.061847955 -0.08598325 -0.0910057 -0.0651078 -0.011699233 0.040607147 0.02049568
-0.06586544 0.021867588 -0.070420906 -0.07428698 -0.06696908 0.047166042 -0.03573647 0.04301572
-0.05626908 0.0062137544 -0.0015832138 0.07568955 0.015308517 -0.08934135 -0.066104256 -0.07170965
-0.011392188 -0.055791095 0.06922891 -0.012713853 -0.027481098 0.013424369 0.09015869 0.030449659
0.02284889 -0.008708802 0.011303954 -0.027439032 0.042617183 -0.0359178 0.06814334 -0.042099833
-0.024306227 -0.0766519 0.03824384 -0.100741014 -0.012957974 0.0673787 -0.07304697 0.0014078737
-0.07818717 0.02545871 0.05561187 -0.007813558 -0.027975699 -0.032534566 0.012816043 -0.04963305
0.06962673 -0.08251325 -0.0837616 0.03613252 0.034483533 -0.05795873 -0.041104026 -0.038367882
-0.08447416 0.028642822 0.040584262 -0.040886983 0.064467825 -0.09671294 -0.006601725 -0.083628945
0.08106481 0.15706716 0.033525024 0.0554125 -0.033194356 0.034681257 -0.074090675 -0.025743132
-0.008846371 0.09664741 0.050854098 0.09977841 0.12844259 -0.08409301 -0.12666328 -0.023700433
00000000: 6839 1ebc c634 48bd cca3 7b3a 2377 0fbe
00000010: 2de7 0f3d 800e 973d b8dd b53c bd74 ef3b
00000020: 9c25 a03d b334 3b3d ba53 55bd c3cb 363d
00000030: d53f 9abd 4d80 1ebd 5b58 ff3a e169 1e3c
00000040: 00fb 8abd 68e6 cd3c 25bd a4bd f874 76bd
00000050: 8dfa 99bd 9a37 cdbd 89dd 023e 38d4 b13d
00000060: b2b5 77bd 2872 003d 3c74 f9bd 879b 00be
00000070: eebe 29bd cb86 a03d 0e58 88bc 8142 013d
00000080: eb56 b0bd c0bc b6bd 0678 cabd cb50 99bd
00000090: 145b 833d b342 a43d dd06 153e 8d5f acbd
000000a0: 9a17 b93d 0e81 5bbb 7ccf 0fbe ec79 273e
000000b0: 12cd acbd fbb3 f7bb cdea 9c3a b069 1ebe
000000c0: dd2a c7bb a297 463c 416e eabb eba8 a5bd
000000d0: 5752 3dbe 0fef b43d d66d 24bc 589c bf3d
000000e0: 2d19 5bbd 57e2 a13d 81dc 1cbe 294f 01be
000000f0: b555 c33c 082b 87bb a293 c3bc a92b 4fbd
00000100: 41af 9cbd 9a91 0fbd 9ded b23d 7915 3ebd
00000110: 4638 873d cfd4 1cbd 28d3 0cbc f66d f23c
00000120: 285e bd3c b92a 203c 2228 0e3d 846a 82bb
00000130: 976c 02be 71d2 1fbd cf8a 71bd b486 45bd
00000140: 5a24 9b3d 5857 0a3d 900a b8bc f39f 873b
00000150: 1d8a f33d 14e5 e23b 1e90 f1bd 5a03 3b3d
00000160: d5c6 683d 0f48 e4bd 8455 e2bd e7e6 42bd
00000170: fa8f c63d 7357 7fbd 6a46 803d 45d4 96bd
00000180: 2167 99bd 57c1 033d 6ae5 263e c9a6 b73c
00000190: 02a5 13be a2de 983d 312a 013e 4da3 ee3c
000001a0: 9620 813d 80ae e03d 0f0b 03bd a2f3 653d
000001b0: e72b 053d a740 ebbc 992d 6f3d 84e8 ec3d
000001c0: a1a5 9dbd ecd4 023d 6922 4b3e 70c5 45bc
000001d0: 0c3a 58bc 1825 353d 7bf9 e3bd 09f3 c73c
000001e0: 4b76 ddbc c978 3c3d 5bc8 583d 7c89 903d
000001f0: c65f 1d3d 905a 413d 87f2 213d 8ff9 2dbd
00000200: d1df f43c 1824 93bd cc14 643d be7a 1abd
00000210: cb2d 11bd 808d 803d 9ec0 9fbd 08d2 8cbc
00000220: cf47 c5bd db06 b0bd 38f7 0c3d 6b51 553c
00000230: 6e7b adbd bc80 9bbd d0a7 443d 8802 9e3d
00000240: 5707 09bd 60a3 393c 9e14 12bc 9934 37bc
00000250: badc 9f3d 96de 043d c2d7 22bb 0d76 b9bd
00000260: f042 5abc b381 51ba bee9 083d 584f 783d
00000270: 26b3 93bc 3b69 883d f80a 23bd e42a 5ebd
00000280: aa4f af3d d7b5 26ba c47b 85bd 5e8d 80bd
00000290: db82 72bd 242e 063d 2a1b ebbc 80d5 2bbc
000002a0: cdd9 a5bd 4854 7d3d fc17 b0bd 3261 babd
000002b0: 3d57 85bd 24ae 3fbc ae53 263d 8ee6 a73c
000002c0: 76e4 86bd a823 b33c d638 90bd c623 98bd
000002d0: 1627 89bd 2e31 413d 6860 12bd 4031 303d
000002e0: 687a 66bd c09c cb3b d783 cfba 1f03 9b3d
000002f0: 93d0 7a3c 99f8 b6bd ab61 87bd 82dc 92bd
00000300: 4da6 3abc 3485 64bd e3c7 8d3d c44d 50bc
00000310: 0a20 e1bc e2f1 5b3c 1fa5 b83d 9071 f93c
00000320: 982d bb3c 5daf 0ebc 3834 393c d2c7 e0bc
00000330: 5b8f 2e3d 8b1e 13bd bc8e 8b3d e070 2cbd
00000340: da1d c7bc acfb 9cbd 93a5 1c3d 4e51 cebd
00000350: af4d 54bc d8fd 893d a699 95bd 6788 b83a
00000360: 9820 a0bd c98e d03c 46c9 633d 7004 00bc
00000370: 4b2d e5bc f742 05bd 61fa 513c 064c 4bbd
00000380: 7698 8e3d b5fc a8bd 348b abbd b1ff 133d
00000390: 9b3e 0d3d 2266 6dbd b25c 28bd a427 1dbd
000003a0: ca00 adbd 5aa4 ea3c af3b 263d 1c79 27bd
000003b0: b507 843d 6f11 c6bd 4853 d8bb a745 abbd
000003c0: 4f05 a63d 37d6 203e 8951 093d 38f8 623d
000003d0: cef6 07bd ef0d 0e3d dabc 97bd 43e3 d2bc
000003e0: 5ff0 10bc 14ef c53d 634c 503d 9f58 cc3d
000003f0: 7486 033e f538 acbd 05b4 01be 6927 c2bc

fc2.bias f4 [84]
0.019419368 -0.038894404 0.23437256 0.068231754 0.10914138 0.21260008 0.22966392 -0.11250326
0.011777685 0.016533157 0.31141 0.19438542 0.14239718 0.25684914 0.26405004 0.11676465
-0.06361467 0.05375385 0.15265313 0.09432569 -0.18360461 0.004740637 0.055351734 0.21075141
-0.121641174 0.13585226 0.046800897 0.060591824 0.23461598 -0.08639169 -0.057105377 -0.15240863
-0.022224873 -0.021731894 0.22583278 -0.074041955 0.14453986 -0.00057723135 0.06693858 -0.19629964
0.061196778 -0.09008346 -0.04097986 -0.044140894 0.069261245 -0.061801 0.09727591 -0.066165105
-0.045282707 0.018704053 -0.05744735 -0.19705157 -0.06611668 0.08506418 0.12126227 -0.031017968
-0.055330362 0.056332324 -0.02814012 0.054220445 0.054740738 -0.029021606 0.22576824 0.14328764
0.2675278 0.17072748 0.12220443 0.15136543 0.17726943 0.019487152 -0.06528756 0.028274111
-0.04191283 0.2378345 0.027075982 0.14949961 0.060513623 0.19783366 -0.1866974 0.058675792
0.08925202 -0.16517837 -0.008133684 -0.09680339
00000000: 5e15 9f3c bd4f 1fbd 5cff 6f3e 17bd 8b3d
00000010: 8485 df3d d6b3 593e 052d 6b3e 1c68 e6bd
00000020: 31f7 403c 8b70 873c 2271 9f3e f90c 473e
00000030: 91d0 113e bb81 833e 9131 873e 4e22 ef3d
00000040: 6848 82bd ff2c 5c3d 1a51 1c3e d42d c13d
00000050: d902 3cbe 5857 9b3b 80b8 623d 38cf 573e
00000060: 021f f9bd db1c 0b3e 4cb2 3f3d 222f 783d
00000070: 2c3f 703e 20ee b0bd 54e7 69bd 0211 1cbe
00000080: f010 b6bc 1607 b2bc b540 673e 4fa3 97bd
00000090: 4202 143e 5751 17ba 1817 893d c602 49be
000000a0: 79a9 7a3d ad7d b8bd 7fda 27bd 15cd 34bd
000000b0: d7d8 8d3d 0c23 7dbd 9838 c73d 9281 87bd
000000c0: 5c7a 39bd 3e39 993c ea4d 6bbd e3c7 49be
000000d0: 2f68 87bd 2136 ae3d 5a58 f83d 6519 febc
000000e0: 17a2 62bd b9bc 663d 1c86 e6bc 4216 5e3d
000000f0: d337 603d b8be edbc ca2f 673e ffb9 123e
00000100: 67f9 883e 2fd3 2e3e 5146 fa3d 8aff 1a3e
00000110: 1e86 353e 85a3 9f3c 7cb5 85bd 1c9f e73c
00000120: caac 2bbd e38a 733e 73ce dd3c 6d16 193e
00000130: 22dd 773d e894 4a3e 9a2d 3fbe 0756 703d
00000140: c3c9 b63d 8524 29be 2543 05bc db40 c6bd

fc3.weight f4 [10, 84]
-0.057054292 0.06950041 -0.11030618 -0.086802796 -0.1494916 0.084861495 -0.32990745 0.05005724
0.17588428 0.07367642 0.24054562 -0.13087653 0.15802296 -0.08400011 0.08537716 -0.072453655
-0.057088383 -0.14982751 -0.018580506 0.41357908 0.14402264 0.011555442 0.020248715 0.33398965
0.05738447 -0.10515212 -0.11033483 0.059963442 -0.049430124 -0.09757211 -0.06596368 0.021651216
-0.072789855 0.07150006 0.29381227 -0.10602651 -0.0020648676 0.121106386 -0.04113868 0.0104453135
-0.024454148 0.118881956 -0.12803276 0.0010716312 -0.44016588 -0.063198864 -0.12345199 -0.067649364
-0.07645989 -0.16346699 0.10562492 -0.019068623 -0.036018215 0.0210273 0.2569986 0.03712807
0.21059468 0.06763011 0.027248072 0.2856171 -0.21182524 0.13900879 -0.08030808 -0.259964
0.15976378 0.17087476 0.14253286 -0.31811455 -0.17146794 -0.14106113 -0.08929465 0.1831013
0.07773356 -0.06539912 -0.004924491 0.15457283 -0.04606008 0.03323132 0.2088169 -0.16580476
0.35632983 -0.0002945933 0.037483163 -0.14013143 -0.06152813 0.09892335 -0.16111746 -0.06381182
-0.07946916 0.034808986 -0.27791625 0.06977967 0.023825921 0.19116828 -0.04646692 -0.09215346
-0.24669303 -0.20464692 -0.40133816 -0.06493243 -0.046068456 -0.14380577 -0.1790916 0.019264717
0.1506198 0.15929452 0.2959538 -0.10947641 0.14985974 0.11122135 -0.12548429 -0.100725524
-0.0326755 0.36411595 -0.102065004 0.35275 0.19107719 0.0020306502 0.25514254 0.071584195
0.12891623 -0.047519535 -0.024446655 0.25335848 -0.15151004 -0.10530283 -0.18975107 0.11205243
0.09622982 0.055220112 0.0042041484 -0.0775261 0.074369855 0.24213992 0.048289035 -0.037925202
0.053641394 -0.01979098 0.4294697 0.096479036 -0.085360974 -0.030304952 0.2110849 -0.20817542
0.19089884 -0.051271237 -0.16422409 -0.19458553 -0.030264767 -0.074040905 0.096916966 -0.26365677
-0.30891168 -0.11636096 0.044789214 -0.012221275 -0.15259509 -0.22606497 0.11506751 0.042104326
0.0030032168 -0.34663445 0.117312476 -0.06921967 -0.2012397 0.096459314 -0.12333197 0.20487206
-0.1776315 -0.09471148 -0.057668075 -0.040025316 0.17850663 0.22488903 0.013711765 -0.024827322
0.058902953 -0.2582122 0.19324449 -0.12883529 0.06324965 -0.11012706 0.3872703 -0.17866795
0.09913056 -0.01505016 0.0073122024 -0.036794625 -0.23720461 0.11485834 -0.16317455 -0.015593705
-0.08071624 0.08412365 0.21379532 0.20806368 0.21842085 -0.19004698 0.08209365 -0.05660892
-0.073595755 -0.1131575 -0.0022943001 -0.109660186 -0.061162066 0.23131396 -0.10244632 -0.22127296
-0.18633942 -0.19370982 0.15179507 0.11725895 0.08599819 0.052246034 0.0053354762 0.02151504
0.0994062 0.19703491 -0.069850676 -0.06279246 0.045569714 0.17992921 -0.06540218 -0.15033019
-0.2802698 0.078639805 -0.248239 0.38248232 0.04726389 0.26018766 0.002454473 0.20232232
-0.029438915 0.045032904 0.18604755 0.23700708 0.12943363 0.122426234 -0.0014521746 0.07073775
-0.119148165 0.23762108 0.026433077 0.22305931 0.05867006 0.3875794 0.038892522 0.06460582
0.27456036 0.13055924 -0.033514008 0.06646637 -0.15424243 0.05535469 0.13453177 0.07286728
00000000: c3b1 69bd 3b56 8e3d 35e8 e1bd aac5 b1bd
00000010: 5314 19be ddcb ad3d a1e9 a8be d208 4d3d
00000020: 021b 343e aae3 963d 9751 763e 7f04 06be
00000030: c5d0 213e 4008 acbd 38da ae3d 9562 94bd
00000040: 82d5 69bd 626c 19be 2536 98bc a3c0 d33e
00000050: ac7a 133e 0953 3d3c a2e0 a53c b100 ab3e
00000060: fa0b 6b3d ff59 d7bd 3af7 e1bd 3a9c 753d
00000070: 3e77 4abd e3d3 c7bd f717 87bd e45d b13c
00000080: d912 95bd a06e 923d 906e 963e 6d24 d9bd
00000090: bb52 07bb a006 f83d 0881 28bd d222 2b3c
000000a0: 1154 c8bc 6278 f33d 051b 03be fa75 8c3a
000000b0: 6c5d e1be 686e 81bd 66d4 fcbd c08b 8abd
000000c0: 0197 9cbd e463 27be e151 d83d cd35 9cbc
000000d0: d687 13bd 7241 ac3c 5295 833e 9a13 183d
000000e0: 22a6 573e a881 8a3d 5937 df3c 683c 923e
000000f0: b7e8 58be 5258 0e3e 9078 a4bd 001a 85be
00000100: 1e99 233e cbf9 2e3e 22f4 113e e9df a2be
00000110: 4b95 2fbe 5472 10be 1de0 b6bd e87e 3b3e
00000120: c632 9f3d f9ef 85bd a05d a1bb 5748 1e3e
00000130: 7fa9 3cbd 911d 083d 19d4 553e b9c8 29be
00000140: dd70 b63e a573 9ab9 f287 193d 9d7e 0fbe
00000150: ec04 7cbd 5398 ca3d fafb 24be c5af 82bd
00000160: bac0 a2bd de93 0e3d 0a4b 8ebe a5e8 8e3d
00000170: 942e c33c 9ec1 433e 1954 3ebd f4ba bcbd
00000180: 199d 7cbe f68e 51be 327c cdbe 4bfb 84bd
00000190: 47b2 3cbd d241 13be ca63 37be 0ad1 9d3c
000001a0: 143c 1a3e 1a1e 233e 4287 973e 2b35 e0bd
000001b0: d574 193e 05c8 e33d f47e 00be 2f49 cebd
000001c0: bfd6 05bd 686d ba3e 7507 d1bd a69b b43e
000001d0: bda9 433e a814 053b 0ba2 823e bc9a 923d
000001e0: 9e02 043e d8a3 42bd 5a44 c8bc 34b8 813e
000001f0: 7325 1bbe 03a9 d7bd 1b4e 42be bf7b e53d
00000200: 2414 c53d 7c2e 623d f4c2 893b 01c6 9ebd
00000210: 394f 983d 87f3 773e b9ca 453d 7557 1bbd
00000220: 14b7 5b3d b120 a2bc 74e3 db3e cd96 c53d
00000230: bcd1 aebd 1742 f8bc a426 583e f02b 55be
00000240: fc7a 433e ca01 52bd 5c2a 28be 6e41 47be
00000250: d1ed f7bc c2a2 97bd 677c c63d 05fe 86be
00000260: ac29 9ebe a84e eebd e574 373d be3b 48bc
00000270: e341 1cbe 937d 67be 84a8 eb3d 9675 2c3d
00000280: 9ed1 443b 127a b1be 8641 f03d 0bc3 8dbd
00000290: c811 4ebe 768c c53d 7995 fcbd fbc9 513e
000002a0: 08e5 35be 18f8 c1bd 5c35 6cbd 96f1 23bd
000002b0: 71ca 363e 4f49 663e 50a7 603c ab62 cbbc
000002c0: 3944 713d 6434 84be e2e1 453e 66ed 03be
000002d0: 0889 813d 4c8a e1bd 4b48 c63e bbf4 36be
000002e0: f704 cb3d f294 76bc 339b ef3b f6b5 16bd
000002f0: c4e5 72be d93a eb3d 3b17 27be bd7c 7fbc
00000300: 8e4e a5bd 0549 ac3d 29ed 5a3e a50e 553e
00000310: b7a9 5f3e ad9b 42be b720 a83d c1de 67bd
00000320: 5fb9 96bd 1fbf e7bd f85b 16bb 8595 e0bd
00000330: 1385 7abd 91dd 6c3e 60cf d1bd 6195 62be
00000340: c3cf 3ebe de5b 46be 2b70 1b3e 7625 f03d
00000350: d21f b03d f0ff 553d 38d5 ae3b 4f40 b03c
00000360: 7a95 cb3d 85c3 493e df0d 8fbd 5599 80bd
00000370: 4fa7 3a3d 5d3f 383e 94f1 85bd 28f0 19be
00000380: 867f 8fbe e80d a13d 5d32 7ebe b9d4 c33e
00000390: c897 413d 5137 853e 39db 203b 952d 4f3e
000003a0: e129 f1bc 6c74 383d 4083 3e3e fcb1 723e
000003b0: 408a 043e 9bba fa3d e556 beba f4de 903d
000003c0: f403 f4bd f152 733e 2e8a d83c a969 643e
000003d0: 0450 703d cf70 c63e c44d 1f3d 0e50 843d
000003e0: 2d93 8c3e 52b1 053e fc45 09bd 851f 883d
000003f0: baf1 1dbe 99bb 623d b2c2 093e 713b 953d

fc3.bias f4 [10]
-0.118504725 -0.62817633 0.14149879 0.19953606 0.45129243 -0.27025315 -0.05872053 -0.18709607
0.5655062 -0.30065078
00000000: 9bb2 f2bd 2ad0 20bf 0fe5 103e 2e53 4c3e
00000010: cd0f e73e 9f5e 8abe f084 70bd 1d96 3fbe
00000020: 04c5 103f e6ee 99be
