cifar_net (1).pth (torch, 251167 bytes, 10 tensors)

conv1.weight f4 [6, 3, 5, 5]
00000000: 0283 97be b68b a1be 0dfb d7be 7592 a23d
00000010: 909c 38bd 97cd 8cbe 3c73 7bbe 11d4 493d
00000020: 45d6 cd3e c7f2 6ebb 4699 47bd e6f9 0c3e
00000030: 139c 663d 05d1 b33e 264c 8f3d 2687 803e
00000040: 68d3 6f3e 6c54 9f3e ecd4 a73e 85ba 413e
00000050: 0d0c cc3e 7c6d cd3e 554b 9b3e 0e90 9b3d
00000060: aa15 083c 20ca 023e 803c 1fbe 55c4 cebe
00000070: 6e23 993e a51b 203d e49c 41be 7a10 b2be
00000080: d4b0 f4bc 0c26 8b3e a7f4 04be 066c b8be
00000090: 131a c6bd acd4 4f3d 3431 443e a49d a9be
000000a0: 9935 9cbe a81d 0bbd aa36 8a3d 6e05 ce3d
000000b0: f86a bcbe 7053 5c3e a0df de3d 2d1d 82bc
000000c0: da41 ffbd 14fd 4bbe c730 df3d a592 76bd
000000d0: 2749 a3bb 3628 e23e bcd6 f93e 9da2 5abe
000000e0: b4e6 a4be c104 533e 637c 2b3f 279f b03e
000000f0: 43d2 1cbe 2505 6cbd 69b7 773e f031 f53e
00000100: 2bc0 0abc 8706 1dbe fd18 e43b 1a99 b63e
00000110: 2fba a03e fc4d bdbe 4e7f e9bd 7df1 c938
00000120: 5c9b 1e3c 77ab 83bd 268a bbbe bca8 763e
00000130: de32 133e 6259 b33d 479e 5dbb 890b e93d
00000140: 34f1 dbbd d824 c43b c6b1 0c3e e3c3 4a3d
00000150: 5072 fd3b 372c 6ebe 9255 6bbe 38f1 98be
00000160: baae 653c 6ccc 0b3d f175 85bd 1584 72be
00000170: 0f8d 93be 094f b0be fcaf 19be 74d8 283e
00000180: 1892 cb3b 342e 81be 9c1e 1fbe 6f41 86bd
00000190: 793f 2cbd 7aa4 4cbd bef5 293c 5acf 46be
000001a0: 62a5 f4be 4d7a a3bb 3c79 283e 2fc0 bf3e
000001b0: 66ce 8f3e bc1a 5cbe d522 50be 5117 02bd
000001c0: 6271 0f3e 63ad b13e ceac 443e 71ae 95be
000001d0: 571e b6be df1c 4dbe 91cd d83d 601d 223d
000001e0: 7acb a5be f3d7 a8be 5411 c1be 1133 2fbe
000001f0: d386 653d 5ae6 213e 0802 483d 91f7 853d
00000200: 2944 94be 3529 11bf 8b3c 853e dac1 203f
00000210: ab31 063f 8f6b 173f a7e1 c4bd 27f2 6b3e
00000220: 7e23 a93e f0f5 1a3f e405 133f 8682 9a3e
00000230: ca5a 6a3b 24f8 3e3e d91c 9b3e f83a ea3e
00000240: bfce df3e d0a7 66bb 245e efbd 7a19 993b
00000250: 46bf cc3d 62a4 5c3e 26ed 9d3e 8995 82bd
00000260: 68eb d6bd 2f22 0dbe ebd1 0c3d 39d3 2a3e
00000270: 66f2 a6be e1c5 aebe e83d d5be a7aa a0be
00000280: bed5 d2bd 6e1b fbbd 37a8 4bbe a4ad 60be
00000290: 1354 a6be d02c 443e 77fe 61bd 6512 9dbd
000002a0: 46f6 b0be 18e3 b0be 6524 3abe 8b27 babe
000002b0: 1648 cdbe a98d b3be e6ac 4fbe 7fa9 a63e
000002c0: 9816 f93d a16e 403e bc86 023e cd1f c5bb
000002d0: f4bd bdbd eaa1 05be 2397 e9bd 672f 2dbe
000002e0: cd32 60be cecf 03be 60f1 9cbd 981a 6abd
000002f0: 9d2f 67ba 8088 533d 03b2 eb3d 6d11 323e
00000300: 6564 ea3d 21f2 6a3d 86b0 a03d 9a9b 80be
00000310: 5d8e 94be 2bf1 ecbd e26a 21be 1b17 66be
00000320: 0867 06bd 9f75 9b3d 5d45 833e f40b 383e
00000330: 8eca 2a3e 8fdd f0bd b929 72be c3f4 d63d
00000340: d8d1 6b3e b82c e93d 1fee 433b 0f35 273c
00000350: c468 a63e e9d7 b33e 5ba3 ad3e 5b24 743e
00000360: 3e74 aa3e d3e1 a93e 0297 b93e 46bc 903e
00000370: 253b 343d 6635 f73d c453 703e d88f 853e
00000380: d456 733e 142d b83e 598f 583f a088 5f3f
00000390: a6db a83e 80e7 153f 5117 0b3f a9b0 4b3e
000003a0: 03e6 36be c5f1 8bbe 65ec 033f 5882 6b3e
000003b0: 6810 09bf c429 d1be 4b21 6ebd eb52 4e3e
000003c0: 2ac3 8ebe 1bd4 04bf 6caf 26bd 224c cb3c
000003d0: 1201 27be dec3 3bbe bae0 dabe a49f 34bd
000003e0: 5c6b 2fbe 792a 51be 3196 ebbd 9c69 00be
000003f0: efb2 e1be da8f 2cbf 46d1 1abf 8ca9 5c3d
-0.2959214 -0.31551903 -0.42183724 0.07938091 -0.045071185 -0.27500603 -0.24555677 0.049274508
0.40202537 -0.0036460625 -0.048730157 0.13767204 0.056301188 0.35120407 0.06996946 0.2510311
0.23420489 0.31119096 0.32779634 0.18918808 0.39852944 0.40122592 0.3033091 0.075958356
0.008305946 0.12772417 -0.15550423 -0.40384164 0.29909843 0.039088864 -0.18907505 -0.34778196
-0.029869474 0.27177465 -0.12983952 -0.36019915 -0.09672942 0.05073993 0.19159395 -0.33128083
-0.30509642 -0.03396383 0.067487076 0.100596294 -0.3680036 0.21516204 0.10882497 -0.015883053
-0.12463732 -0.1992076 0.108979754 -0.060198445 -0.0049830857 0.44171304 0.48796642 -0.21351095
-0.32207263 0.20607282 0.66986674 0.34496424 -0.15314583 -0.057622094 0.24191059 0.47889662
-0.008468668 -0.15334521 0.0069609866 0.35663682 0.31392047 -0.3697356 -0.114012346 9.6294076e-05
0.009680595 -0.06429189 -0.36628836 0.24087805 0.14374873 0.08757283 -0.0033816264 0.11379153
-0.10739365 0.0059858374 0.1373969 0.04950322 0.0077345744 -0.23259054 -0.22981861 -0.29871535
0.014018709 0.0341305 -0.06516636 -0.23683198 -0.28818557 -0.344353 -0.15008539 0.1648882
0.006212484 -0.25230563 -0.1553902 -0.06555449 -0.04205272 -0.049961545 0.010373531 -0.19415036
-0.47782427 -0.0049889446 0.16452497 0.37451312 0.28087157 -0.21494573 -0.20325787 -0.031760518
0.14008096 0.34702596 0.19206545 -0.2923465 -0.35570022 -0.20030545 0.10586084 0.039578795
-0.32381803 -0.32977256 -0.37708533 -0.17109324 0.05603678 0.15810528 0.048830062 0.0654136
-0.28958252 -0.567035 0.26022753 0.62795794 0.5241954 0.59148496 -0.09613352 0.23041593
0.3303489 0.6053152 0.57430863 0.30177706 0.003575968 0.18649346 0.30295447 0.45748115
0.43712422 -0.003519524 -0.11687878 0.0046722265 0.0999742 0.21547082 0.30844992 -0.06376178
-0.10494119 -0.13782571 0.03437988 0.16682138 -0.3260681 -0.34135345 -0.41648793 -0.31380197
-0.10294674 -0.12261091 -0.19888388 -0.21941239 -0.3248602 0.1915772 -0.055174317 -0.07669524
-0.34562892 -0.3454826 -0.18177946 -0.36358294 -0.4009406 -0.35069016 -0.202808 0.3255119
0.121625125 0.18792202 0.1274671 -0.006015754 -0.09264746 -0.13050047 -0.1140578 -0.16912614
-0.21894379 -0.1287224 -0.07663226 -0.057154268 -0.00088190456 0.05164385 0.115085624 0.1738946
0.1144493 0.05735982 0.07846169 -0.25118715 -0.29014865 -0.11569437 -0.15763429 -0.22469752
-0.032813102 0.07590794 0.25638857 0.1797331 0.16678831 -0.11761009 -0.23648728 0.10495903
0.23029268 0.113854825 0.002989657 0.010205521 0.32501805 0.35125664 0.33913693 0.23841994
0.3329181 0.33180103 0.36248022 0.2826864 0.044001717 0.12070732 0.23469454 0.26086307
0.23763591 0.35971892 0.8459373 0.8731785 0.32980078 0.58556366 0.54332453 0.19891609
-0.1786118 -0.27332893 0.51532584 0.22998941 -0.5354066 -0.40852177 -0.05813722 0.20148818
-0.27883273 -0.5188615 -0.04069464 0.024816576 -0.16309002 -0.18336436 -0.42749578 -0.044097558
-0.17130798 -0.20426358 -0.11503256 -0.12540287 -0.44081828 -0.67407 -0.60475576 0.05387263

conv1.bias f4 [6]
00000000: e77b 113d 797d c5be 8bc3 c43e ee75 3dbf
00000010: 662c acbe 7e5d f0be
0.035518553 -0.3857229 0.38430437 -0.7400807 -0.33627623 -0.4694633

conv2.weight f4 [16, 6, 5, 5]
00000000: 722a dabe 3f68 96be e8a9 84bc ebd6 8d3e
00000010: 958b 193e 879b 33be ee7a e13c 6148 0c3e
00000020: 9e3c 2a3e 6a28 b13d 3da6 dabd 11c7 70ba
00000030: 8191 013e 2084 0f3e f293 433e 6e77 1dbd
00000040: e507 b6bd 8f8f 80bc 8796 d4bd 8024 513d
00000050: 6a0b c63d 88f5 bcbd 3d2c e8bc 3cba 84bd
00000060: cc00 30be 63ba 00be 0f83 cabe 60a8 e9bd
00000070: 7f5c af3d ed98 ed3d 1535 ffbd 4628 b5be
00000080: 23f4 a5bc 6bfd 253e 0342 683e a757 5dbe
00000090: 1fc2 b6be 875b 5fbe 081a cbbb 5a4e 8c3d
000000a0: 1bdf e4bd 9904 ccbd 0a76 6ebd cd0f 543d
000000b0: f961 283e 4a78 c3bd b708 11be bbfe d9bc
000000c0: e282 8bbd 4bcb 5cbc 9945 f1bc 4a15 cdbe
000000d0: 5d03 96be 0303 80be 2cbf 32be 3623 c83d
000000e0: 6957 57bd 48cf ab3c 1075 203e be66 463d
000000f0: c2e9 003e 935e 1ebd a95d 8a3c bff7 d03d
00000100: 3db6 05bd 568f 5a3c fb1f c8bd 2e38 033d
00000110: b8ca 183d d287 47bd 6023 323e 4639 903c
00000120: c40b 2b3c 8670 99bd ba72 49be 844c b13e
00000130: 4984 0e3f f8c9 9e3e 2312 5c3d a915 a6be
00000140: 9ddc ce3e 9ffc 983e c92b 56be 5b6c 85be
00000150: 773e f8be 4636 333e 5b08 c1bd 12ee a9be
00000160: dcf9 4abe 9100 8dbe 5873 ac3e f1a3 4cbe
00000170: 2592 8fbe fa80 7fbe ae6b 41be eee7 98bd
00000180: db7d 7fbe 8078 cfbe 6657 afbe 63cf f7be
00000190: c92d ea3d 2cb5 45bd 267e 203e ddea 31be
000001a0: 7d2a 5ebe 0712 043e e352 c0be dce2 ddbd
000001b0: d9a5 85bc 799c b0bd 7407 0c3b 300f 43be
000001c0: ecd5 17be 15a2 05be 5d45 81bd 4ff0 efbd
000001d0: 6441 d8bd 1521 2dbe 2aa3 0d3d 4a44 0b3e
000001e0: d8ed fa3d 8109 22bc 09fa babd 6402 a23d
000001f0: 2e60 413e 7fbb f6bd 1916 5dbd 219b 30be
00000200: 086c e1be 5131 15bf 4dcb 343e 4795 a43e
00000210: 37d2 f3bd 81c4 61bd f6ec 9dbe 79f8 073e
00000220: b7f1 b73d 09fa 193e e4b9 b8bd 8a58 2bbe
00000230: 0630 d63d 4d76 9dbd 979a c03d 7f4e 233d
00000240: e824 05bd 9fbb 7c3e abab 23bd 1eb7 bb3d
00000250: 7296 e5bc 8b59 193b 7b61 2b3e 48da b43d
00000260: 991e 853c f6fc 7bbe 0099 dc3d 88a0 9cbd
00000270: cb82 fc3c 8234 79bc 247d 9cbe 4088 2bbe
00000280: b790 e9bb a9d6 aaba da8d 61be bc9a 85be
00000290: bdc4 29bc 633f 5e3d 621b 783e ca7a d7bd
000002a0: 7b1b 043c 191a 22bd a206 af3d 390a bd3e
000002b0: 28d4 1fbd 5ede 7abe 5a53 31bd 6d10 f1bc
000002c0: 0ff4 eb3d 31fd 463e cef0 163e 03d3 163e
000002d0: ac4c 113d 208b 203d 53c4 1abe 177f 453d
000002e0: 3507 1c3e 0e1f 8dbd b1b5 25bd d0ef b3be
000002f0: c020 6ebe d034 143d a6a2 c7bd 2ec6 f2bd
00000300: b037 59be f660 6abd 039e d83d 9708 01be
00000310: 2ca7 763b b308 68bc bfcf 273d 43ad 543e
00000320: ea62 803e 927d a03d 6449 f0bd 868f dbbd
00000330: 5efa 463e 4e12 0b3e 30cf 84bd d51d 39be
00000340: f85f c0bd cea4 8e3e 85fe f43c 3963 81bd
00000350: 85ad 26bd cae0 a2ba 1eba 463e f3fa 123e
00000360: cc82 b8bd 160c 4fbd 6b41 6cbd b8b9 793d
00000370: 663f 08be ecad 0cbd 7b18 0dbd b770 e9bd
00000380: b5f4 f4bd e22e 71bc e5c5 ba3e f93e 543d
00000390: 7daf 8a3c 6623 3dbe e0ab 923c 41da 6f3e
000003a0: 6268 38be 4fd4 8c3e 8fcb 4f3d ed75 543d
000003b0: 2800 313e 7713 a5be 3e84 253e a0b2 5c3d
000003c0: cf63 19be c1ee 833c e8f9 8cbe e88a 8f3e
000003d0: 261c 99bd 23ca db3d 54fc 08be ef05 67be
000003e0: f830 0dbc 5274 e3bd e68b 14be 6571 68be
000003f0: 4364 db3d 7325 8a3d d01d 5b3c f86d 40be
-0.42610508 -0.29376408 -0.016194299 0.27703032 0.14994653 -0.17539798 0.027524438 0.13699485
0.16624686 0.086502865 -0.10676239 -0.00091849366 0.12653162 0.14015245 0.19099405 -0.038443975
-0.088882245 -0.015693454 -0.10380273 0.0510602 0.09670146 -0.09226519 -0.028341407 -0.06480834
-0.17187804 -0.12571101 -0.39553115 -0.11409068 0.08562564 0.11601434 -0.124612965 -0.3538229
-0.020258015 0.16209953 0.22681431 -0.21615468 -0.35694978 -0.21812259 -0.0061981715 0.06850882
-0.111753665 -0.099618144 -0.05821804 0.05177288 0.16443624 -0.09544428 -0.1416348 -0.026610723
-0.06812073 -0.013476203 -0.029452132 -0.40055305 -0.2929944 -0.25002298 -0.17455739 0.09772341
-0.052573595 0.020972863 0.15669656 0.048437826 0.12589172 -0.03866441 0.016890364 0.10203504
-0.0326445 0.013339838 -0.09771725 0.032036 0.037302703 -0.048713513 0.17396307 0.017605435
0.010439817 -0.07492165 -0.19672671 0.3462869 0.556706 0.31013465 0.053728234 -0.324384
0.4040269 0.29880235 -0.2091514 -0.2605923 -0.48485157 0.17501172 -0.09425422 -0.33189446
-0.19821876 -0.27539495 0.3368175 -0.19984414 -0.28041187 -0.24951544 -0.18888733 -0.07466112
-0.24950354 -0.40521622 -0.34246367 -0.4840041 0.11434514 -0.048268482 0.15673122 -0.1737475
-0.21695895 0.12897502 -0.37563238 -0.108342856 -0.016314434 -0.08623595 0.0021366747 -0.19048762
-0.14827698 -0.1305011 -0.06312058 -0.11715757 -0.10559347 -0.16907151 0.034579434 0.13600269
0.12252396 -0.009889961 -0.09129722 0.07910612 0.18884346 -0.12047481 -0.053976152 -0.17246677
-0.44027734 -0.58278376 0.17655678 0.3214514 -0.1190533 -0.05511904 -0.3084485 0.13278379
0.0898165 0.15036787 -0.09019831 -0.16732994 0.104583785 -0.0768858 0.09404486 0.03986978
-0.0325059 0.24680947 -0.039958637 0.09165786 -0.02802584 0.002339932 0.16736405 0.08830696
0.016249942 -0.24608216 0.1077137 -0.076478064 0.030824086 -0.015210273 -0.30564225 -0.16751194
-0.007127847 -0.0013033944 -0.22026768 -0.26094615 -0.0103618475 0.05425967 0.24229196 -0.10521467
0.0080631925 -0.03957567 0.08546187 0.36921862 -0.039020687 -0.24498889 -0.04329238 -0.029426778
0.1152116 0.19432522 0.14740297 0.14728932 0.03547351 0.03919518 -0.15113954 0.048216905
0.15237124 -0.06890689 -0.040456478 -0.351439 -0.2325468 0.03618318 -0.097478196 -0.11854206
-0.2121265 -0.057221375 0.10577013 -0.12600933 0.0037636263 -0.01416223 0.040969606 0.20769219
0.25075465 0.07836451 -0.11732748 -0.10720734 0.19431445 0.13581201 -0.064848304 -0.18077786
-0.093933046 0.2786011 0.02990652 -0.06317753 -0.040692825 -0.0012426612 0.19406936 0.14353542
-0.090093225 -0.050548635 -0.057679575 0.06096813 -0.13305435 -0.034345552 -0.034447175 -0.11398452
-0.11960737 -0.01472065 0.36479107 0.051817868 0.016929382 -0.18470535 0.017904222 0.23423101
-0.18008569 0.2750573 0.050731238 0.051870275 0.17285216 -0.32241413 0.16163728 0.053881288
-0.1497948 0.016105058 -0.27534413 0.28035665 -0.07476072 0.10731914 -0.13377506 -0.22560857
-0.008617632 -0.11106171 -0.14506492 -0.22699507 0.10712483 0.06745424 0.013373807 -0.1879195

conv2.bias f4 [16]
00000000: 32af a33f b4b6 86bf 4838 cc3c 5953 533f
00000010: 31ca cdbf d56a 1040 f6f0 abbe d136 473d
00000020: 0cc1 a7be 3567 f13e 868a be3f a818 083e
00000030: 4497 b9be cdc5 c0bf 648b d23e d422 07bf
1.278784 -1.0524507 0.02492918 0.82549053 -1.6077329 2.2565205 -0.33582276 0.04863626
-0.3276447 0.47149053 1.4886024 0.13290656 -0.3624822 -1.5060364 0.41121972 -0.5278752

fc1.weight f4 [120, 400]
00000000: f7eb 363d 1213 003e 7896 06bd 2031 623d
00000010: ec9f 663e dd20 94bd 2d4e 6a3a 7438 8d3d
00000020: d2a6 d93d 698c 543d 6257 9dbc 6f06 093e
00000030: 637a 5abd 5f33 06bd fe74 91bc e042 ed3b
00000040: 9a36 b6bc f32d ec3c ca42 6bbb 1eb2 79bd
00000050: 8f87 2d3e 44e2 963d 09e4 bf3c 6124 973d
00000060: 0c13 39bd d798 df3b 1145 ae3d f20b cf3d
00000070: c1ef b03d 2dc0 1fbd bf29 50bd 777f 203e
00000080: a6f9 103d 2f6e c73c 814b b8bc 6258 92bd
00000090: bac8 3d3a ebc3 0b3e 8762 163e 2848 383e
000000a0: 6df2 0abd 9752 863d e034 fc3d cbc3 223d
000000b0: 7a07 4a3e 4c07 2cbd 4494 f7ba 23e6 4d3c
000000c0: aabd 3fbd 0635 133e 58e1 4d3e 1be0 21bb
000000d0: cba8 cd3d 34e8 0f3e 6fad 163e 1463 1b3e
000000e0: 58e0 0abe 7a52 85bd a4b3 633a 43b9 dbbd
000000f0: c881 02be b709 e5bd 6876 3b3e 7d7c 393e
00000100: 6c6b 9e3b 001d af3c c0e6 81bc 873e 003d
00000110: a984 b53d e3cc 2b3d c35d 8a3d b70d e03b
00000120: 7a3e 8ebd d9ba 603e 06b2 773e cfd4 0b3e
00000130: 54ca 523e 584b 8bbc 5d3b a83d a89f 5a3d
00000140: 6823 603d 59d9 713d a49d 67bd fdfd 173d
00000150: c5eb 8d3c a634 88bd 3189 713d cc7f 453c
00000160: c24e 8d3d 73fb 203e e3a5 00be be09 f4bb
00000170: c337 a53c a9c7 b93c 5739 3abd 6106 2d3d
00000180: 6829 b4bd 8d31 18bd 6c0d 973c edb3 02bd
00000190: 1a22 033d 891a 0fbd b690 b33c ab2f 06be
000001a0: ad56 4b3d dd8c 61be 6b1a a3bd 72f1 fabd
000001b0: 03c6 623d a26a 243e dd14 83bd f479 62be
000001c0: 652f 26be c26d 5bbd f626 663d c290 e1bc
000001d0: 6b17 1abe db10 cebd f78e 093d 53c1 22bc
000001e0: 560a 893d 32d7 febd fe4e c2bd 13c0 0cbe
000001f0: 54c8 a2be d0f3 0ebd 6cef edbd 1197 87be
00000200: d388 62bb 1de3 d63d 1581 323d c2bb cfbd
00000210: 8124 53be 410f 32bd 2b16 c13b 94be b23d
00000220: 3328 8d3c 72ce 04be 6aad 85bd 9bb3 d43c
00000230: 0b78 b4bc 7c8c 5e3d 6c56 b13d 87c8 513d
00000240: 5f4c 31bc 3cbc dabc 50be 88bd 41f0 07be
00000250: 9b45 1fbd eb92 afbd b998 1fbe cef7 5dbd
00000260: 9be7 753e d71e 773e 32ff 013d ed3d 4fbe
00000270: 8c55 c0bd 1b2e aabc ff7b af3d 58e4 00bd
00000280: 2f2f a7bd f2ba d8bd e48e 163d aef5 793e
00000290: d79c 513e d0e5 bc3c bea2 edbd 9174 073d
000002a0: abdd 9b3d b310 1d3e 170f e6bd 1aaf a73b
000002b0: 6c2a 3b3d 483a 8fbd 506b a83c 8274 9e3e
000002c0: cd5e 3b3e 1abb 233d c1e4 f03c f6b3 d7bb
000002d0: 15a5 0b3e f1f7 d33c 910b 9aba 7287 32bd
000002e0: cba3 aabd e5c4 5b3d 610e f9bd cacf 51bd
000002f0: fcdf 8b3d a967 15bc 1137 c13c 5165 48bd
00000300: faee 0dbe f176 803d de9e 0fbd f12e e53d
00000310: 4b13 48bb b9a8 2ebe 0b1b 2ebd 51f9 153e
00000320: 1ace 94be e3e8 a0be 509d 1b3d 8674 8c3d
00000330: cc0f 2a3e 2d16 a2be c5ca 7ebe 9431 34be
00000340: 714c a03d 6842 f1bd 5335 023c 5b87 03be
00000350: 6c3b 85bd eb62 153e f29c 9fbc 100a dfbc
00000360: 3550 b83b 8e49 e0bd f16e 573d dfca a1bd
00000370: e487 663d 0fc4 c9bc 7f4c 6c3d b098 43bd
00000380: f68b fabc 51b8 9ebd bda0 19be 48e2 afbd
00000390: 3e30 e83d c898 b9bd 849c 93be 29dd 47be
000003a0: 86f7 d0bc 1a1b 0d3e c5c0 033e 57d2 ad3a
000003b0: 9563 5ebe 4fa5 0ebe ce35 e9bd ae98 7a3d
000003c0: 2147 633d 2b26 0abe a86c e5bd 7f6a 133d
000003d0: b8d5 f33d 66a8 57bd ac5f 72bd 9ca3 4b3d
000003e0: 1bcc bfbd c7b7 ccbd 7dc6 173c cc6a d83d
000003f0: e915 25bd 6c53 86bd 786c a7bd ee2d 69bd
0.044658627 0.12507275 -0.032858342 0.05522263 0.22521943 -0.07232831 0.00089380407 0.06895533
0.106275216 0.051891718 -0.019206706 0.1338136 -0.053339373 -0.032763835 -0.017755982 0.007240638
-0.022242833 0.028830504 -0.0035897964 -0.06096088 0.16946243 0.073673755 0.023424165 0.073799856
-0.04518418 0.00682364 0.08509267 0.101097 0.086394794 -0.039001632 -0.050821062 0.15673624
0.035394333 0.024344532 -0.02249694 -0.07145764 0.00072396884 0.13648956 0.14686023 0.17996275
-0.0339226 0.065587215 0.123147726 0.039737504 0.19729415 -0.041999146 -0.0018888791 0.012567076
-0.046811737 0.14375696 0.20105493 -0.0024700228 0.1004196 0.14053422 0.14714597 0.15174514
-0.13562143 -0.06509872 0.00086861313 -0.10728695 -0.1274482 -0.111834936 0.18306887 0.18113895
0.004834583 0.021376133 -0.0158571 0.03130963 0.088631935 0.041943442 0.06756165 0.0068375724
-0.0694551 0.21946277 0.24189004 0.13655399 0.20584995 -0.0170037 0.08214448 0.053374916
0.054721266 0.05904517 -0.056546822 0.037107456 0.017324338 -0.06650667 0.058968727 0.012054395
0.068997875 0.1572092 -0.12563281 -0.0074474504 0.02016819 0.022678213 -0.04546484 0.04224241
-0.0879696 -0.03715663 0.018439017 -0.03190987 0.032014944 -0.034937415 0.02191959 -0.13104121
0.049643207 -0.22026391 -0.07964023 -0.12253083 0.05536462 0.16056302 -0.06400464 -0.22116834
-0.16229017 -0.05357147 0.0561895 -0.027534846 -0.15047996 -0.10061809 0.033583608 -0.009933787
0.066914245 -0.12443389 -0.09487723 -0.13745145 -0.31793463 -0.034900486 -0.11617932 -0.26482442
-0.0034566417 0.10492537 0.043580133 -0.10143234 -0.20619394 -0.04347158 0.005892535 0.08727756
0.017231083 -0.12969378 -0.06527217 0.025964549 -0.022029897 0.054333195 0.08659062 0.05121663
-0.010821431 -0.026701085 -0.06676924 -0.13275243 -0.03888474 -0.08572944 -0.15585603 -0.054191403
0.24014132 0.24132858 0.031737514 -0.20238467 -0.09391317 -0.020773938 0.08568572 -0.031467766
-0.081632964 -0.10582532 0.036757365 0.24410126 0.20469986 0.023058802 -0.11603306 0.03307015
0.07610639 0.15338401 -0.11233347 0.0051173093 0.045694754 -0.06993538 0.020558983 0.30948263
0.18297882 0.039973356 0.029405953 -0.0065827323 0.13637193 0.025875064 -0.0011752715 -0.043586202
-0.08332022 0.05365457 -0.12160946 -0.051223554 0.06829831 -0.009118953 0.023585828 -0.048924748
-0.13860694 0.06272686 -0.035063617 0.11190594 -0.0030529078 -0.1705655 -0.04250626 0.14645888
-0.29063493 -0.31427678 0.03799182 0.068581626 0.16607589 -0.31657544 -0.24882038 -0.17597038
0.0782708 -0.11780244 0.007947284 -0.12844603 -0.065054744 0.14588515 -0.019484017 -0.027226478
0.005624796 -0.109515294 0.052596036 -0.07900023 0.05628194 -0.02462962 0.05769014 -0.047753036
-0.030584317 -0.07749999 -0.15002723 -0.085880816 0.113373265 -0.09062344 -0.2883035 -0.1951796
-0.025508653 0.1377987 0.12866504 0.0013261539 -0.21717675 -0.13930248 -0.113872156 0.061180763
0.055487756 -0.13491122 -0.11202365 0.035990234 0.11905998 -0.05265083 -0.05917327 0.049716577
-0.09365102 -0.0999599 0.009263632 0.10567245 -0.0403041 -0.0655888 -0.08174986 -0.056928568

fc1.bias f4 [120]
00000000: 6722 f6bd 9cc6 cbbd 6f59 a3be f02c 0ebe
00000010: cb15 dabd c3f4 953a c9df 483e 57a5 91bb
00000020: eec7 9bbe ed41 363e 0f31 273e 9b17 863e
00000030: 178d e03d 8d81 febc e0d8 d93d daba 22bd
00000040: 54eb 243d 7f25 8bbb 6221 a33d ff24 4e3e
00000050: f6bc 18bd de2a 5f3e 03a3 00be b7f4 0e3d
00000060: 7989 37bc 557d a73e ab84 573d 8e0c a83e
00000070: 30b5 18bd ead5 293d aaf5 913d ff2d f43d
00000080: 7ca4 793e ac91 f4bd 6f7f 2e3e 8ddd 93bd
00000090: 48b8 f8bc 3b01 8e3d acdc 2bbe 401a 97bd
000000a0: 6c29 b3bd 80e8 2cbd 4ac1 653d fbac 283d
000000b0: dd19 7b3d 1efd c3bd 740b 91be 3e80 e63d
000000c0: ff5c fd3d d23c c63b e75a 86be 555b 8e3c
000000d0: 5015 87bc 6d2a a1bd 513c 76bd b002 e13d
000000e0: 8c32 42bd 2759 5ebe b6d9 1b3d 5dc3 9f3d
000000f0: f4f8 0b3e 18fc 97be 581e 41bc d722 393d
00000100: 5d0b 3b3e ca4d 93bc fc8f c63d e0b3 9d3d
00000110: 815b 853d 69a3 8d3e 2aeb 8e3d dce1 b8be
00000120: 82a3 87bc a7a7 44be d958 a53c ad4f 613e
00000130: 7153 c0bc 41c9 c0bd 4990 1f3e a86e d73e
00000140: 0e78 54bb 7708 57be 6efb 703d 7ece b4be
00000150: 68a8 27be 7c8d 7e3e aa15 6a3b 5086 a73e
00000160: 56fa 60bd 2347 0e3e 664b 9f3e 52ae cbbb
00000170: a2ab f43d 164c d2bd fa1b a23c 1e9f f93d
00000180: 06b8 543d dd2e d8bc 5f2c 18bc f518 a2bd
00000190: ca32 9c3e 0754 38bd 2334 ebbc dabf 7abe
000001a0: e42b 54bd 63e4 8f3e 9f4b 3ebe 106e 83bd
000001b0: adbc 603e 77a7 3d3d 84a0 563e 8f35 2a3c
000001c0: 341f 3bbe 83a8 d83d 82b6 59bb 1e7f 793e
000001d0: 8c8e 923e 41d1 6ebd b9e5 383e 4b45 1ebe
-0.120182805 -0.09949991 -0.3190417 -0.1388433 -0.10648688 0.0011440743 0.19616617 -0.004444759
-0.30425972 0.17798586 0.16327308 0.26189885 0.10964411 -0.031067634 0.10637069 -0.039728977
0.04026349 -0.0042464132 0.07965352 0.201313 -0.037289582 0.21793696 -0.12562184 0.034901347
-0.01120221 0.32712808 0.052616756 0.32822078 -0.03728217 0.04146377 0.07126935 0.119228356
0.24379152 -0.11941847 0.170408 -0.07219992 -0.03036131 0.069338284 -0.16783398 -0.07378054
-0.08748135 -0.042213917 0.056092538 0.041180592 0.061303962 -0.09569763 -0.2832905 0.11254929
0.12371253 0.006049731 -0.26241228 0.017377535 -0.016489655 -0.0786942 -0.060116116 0.10986841
-0.047411487 -0.21713696 0.038049422 0.078009345 0.13669187 -0.2968452 -0.01178702 0.04519924
0.18266053 -0.017981429 0.096954316 0.07700324 0.065115936 0.27663735 0.06978448 -0.36109817
-0.016557459 -0.1920458 0.020183967 0.2200305 -0.023477288 -0.09413386 0.15582384 0.42076612
-0.003242019 -0.20999323 0.058833532 -0.3531379 -0.16372836 0.2485866 0.003571848 0.3271966
-0.05492624 0.13894324 0.31112212 -0.006215849 0.11946799 -0.102684185 0.01978873 0.12188552
0.05193331 -0.026389534 -0.009287923 -0.079149164 0.305075 -0.04500201 -0.028711384 -0.24487248
-0.05179967 0.28103933 -0.18583535 -0.06417477 0.21946974 0.046302285 0.2095967 0.010388746
-0.18273622 0.10579016 -0.0033220355 0.24364898 0.2862438 -0.05830503 0.18056382 -0.1545612

fc2.weight f4 [84, 120]
00000000: d6c3 04bd b4a1 cb3c 6cca df3b caed d23c
00000010: 7a4d 5e3d f36e cbbd 95e1 963c bb70 e23d
00000020: 683f 123c deb7 9b3b d7ab 1d3d 71bc 4dbb
00000030: 59f2 d53c 4ae5 133b 0901 9d3d 99ca 7cbc
00000040: 9fbe b8bd 0534 5f3d b1e8 9a3d 02a7 d13c
00000050: 1558 f0ba 075b 8fbd 3e51 b93d a122 a6bd
00000060: 6702 12bc 8b04 b0bd fdbb c338 5361 6abc
00000070: 9926 49bd 80ab 673d cd81 91bc 485b 163d
00000080: da47 c8bb fa29 42bd dfc8 29bd aaa5 63bc
00000090: 9078 7ebd 2857 e9ba 49d7 3bbd 3df9 96bc
000000a0: c450 aebd 9dde 68bd dcba c2bd 268e 573c
000000b0: 511d 52bd aea5 46bd 6c11 783d 3bc4 9e3b
000000c0: 656b 9fbd 5927 693d 8755 efbc ae05 8d3c
000000d0: 40b7 4f3d 15e9 bebc f480 a1bd e11e bcbd
000000e0: 23b0 c8bd 61f8 07ba a640 7cbd 23ec a4bd
000000f0: 16eb 8dbd 5e8e a0bd c1aa 263c fa30 b4bd
00000100: fbe8 b63c 156f 57bd 0914 683d d985 08bd
00000110: 7a83 0a3d fd5a 4d3d 4dce 283b 0f4f c8bd
00000120: 7fab e4bc 0a20 b9bd 10af babd ad8b b1bd
00000130: 22db 8b3d 064c 043d 1db7 8a3a 28a9 e7bc
00000140: 9f40 823d a358 8b3b eb1a 35bd 9c95 d6bd
00000150: 5d3d 9ebd a030 55bd 48d7 3cbd 5cbc 03bc
00000160: 114e ad3c d929 cf3b 48a4 a5bd f74d 7f3d
00000170: e4d8 68bd 9d45 23bd cd4f ec3b 2953 213d
00000180: 398c 653d 4ab5 03bd 8005 173d 7994 32bd
00000190: 8bed a1bd d7ce 86bd 9848 2fbd 6fbe 4abd
000001a0: 24a9 303d 8007 543d 0ca3 67bd 9d6c f43c
000001b0: 3f72 ecbc dc0b 14bd 52e2 4fbc 11cd b33b
000001c0: 6c33 90bd 786b 513d 348a 193d 8594 95bd
000001d0: 649c a4bd 2b28 403c 271c b03c aeae b3bd
000001e0: 9cd1 9eba e6e1 1dbe 3cd2 1cbd 4620 2bbd
000001f0: 124d b5bd c3bf 1cbe 7273 05be 115f 45be
00000200: 7082 2f3e 3bce e43d 6384 11bd 58e7 523e
00000210: 9c59 efbd 4d3f 14be 1ea7 22bd 3aa8 edbd
00000220: 8237 5fbc 31c9 61bc ad60 1ebe 65df de3d
00000230: 7437 88bd 0adc 4bbd 9aea 46be 4d16 ecbd
00000240: 17fe 873d c8be 043e 9232 86bd 116c 893d
00000250: d5de 4f3d 77e6 b73c 831e 3c3e b558 9ebd
00000260: 5aca acbb 6940 0cbd b81f 833e 9855 a83b
00000270: c968 b73d b883 10be 84f7 b8bd 4b09 a4bd
00000280: 7c3a 60be 6fea b2bd 824f 89bc 7c13 1dbb
00000290: 4c57 553c abb3 113e 2820 483d 038c ad3c
000002a0: 8999 17be b920 993d bd85 743d 6a0d b2bd
000002b0: 6fac 6dbe b8d0 b3bd 437a b5bd e28f 813d
000002c0: 8f0b 7cba 6360 d7bc 7182 35bd 2fd6 c4bd
000002d0: aace 5fbe 6aab 47bb 6bb6 17bc f0e6 193d
000002e0: 14ea cebd 6b19 1c3e 827d f1bc 991a 06be
000002f0: 56bd 383d e041 613d 748c 18be 59d5 1539
00000300: 5945 93be e255 6abd e5fb cebc a74c 39be
00000310: c878 80be c41d 76bb e96d 36be 11a9 023e
00000320: 1715 5e3d 7ea8 d3bd 1fa2 52be 0e6f 8dbb
00000330: 9225 12be 3ae7 053e ea1d 223e a239 26bc
00000340: fe54 cb3c 1727 9abc f824 7bbd 5476 873c
00000350: e946 1b3a 977b 633d 62ab 4dbc d0f0 033d
00000360: e219 32be 0c23 0dbb 38b4 143e 64e3 1ebe
00000370: 7843 213e c46a 603d d7c3 efbd 47d4 9fbe
00000380: 6d07 8d3c fd03 033d e503 b4bc 2396 a6bd
00000390: 665a aabd 425b 813e 9bd5 48be 6db9 ad3d
000003a0: 933e e1bc 6be2 9abd 5283 10be 9693 c43b
000003b0: 0bf9 da3d 18be eabc 103e 4cbe e3b8 58bd
000003c0: 6e22 ab3c 4897 80bd c0ea efbd 6615 183d
000003d0: e624 8fbd 607c d2bb 0319 0c3d 8e84 8fbd
000003e0: 4890 12be bf51 00be e3fd 5cbd 3ce3 c1bd
000003f0: 6933 fa39 f3ba adbd 3db3 ac3d 2f23 d13d
-0.032413326 0.02485738 0.0068295505 0.025748152 0.054273106 -0.09933271 0.018418113 0.11056658
0.00892625 0.0047521433 0.038493957 -0.0031392837 0.026116537 0.0022567087 0.07666213 -0.015429162
-0.09020733 0.05449297 0.075639136 0.02559233 -0.0018336797 -0.06999784 0.09048699 -0.08112074
-0.008911706 -0.085946165 9.33334e-05 -0.01430543 -0.049109075 0.05656004 -0.01776209 0.036708146
-0.006112081 -0.047403313 -0.04145133 -0.013894478 -0.062126696 -0.0017802464 -0.04585961 -0.018429393
-0.085114986 -0.056852926 -0.09508297 0.013156449 -0.05129749 -0.04849785 0.06056349 0.00484517
-0.07784156 0.05692229 -0.029215587 0.017214622 0.05071187 -0.023304502 -0.07885924 -0.09185577
-0.097992204 -0.00051868526 -0.06158509 -0.08052852 -0.06929605 -0.078396544 0.010172547 -0.08798404
0.02232789 -0.05259617 0.056659732 -0.033330772 0.033816792 0.0501356 0.002575773 -0.09780704
-0.027913807 -0.09039314 -0.09115422 -0.08669219 0.06828906 0.032299064 0.0010583136 -0.028278902
0.06359982 0.0042525097 -0.044215124 -0.104777545 -0.07726548 -0.052048326 -0.046103746 -0.008040514
0.021155389 0.0063221273 -0.08087975 0.062330212 -0.056847468 -0.03986131 0.0072116614 0.03938595
0.05604193 -0.032155313 0.03687048 -0.043598626 -0.07906636 -0.0658242 -0.04279384 -0.049498018
0.043130055 0.051764965 -0.056551978 0.029836947 -0.02886307 -0.036144122 -0.012688236 0.0054870923
-0.07041058 0.05112788 0.037485316 -0.073037185 -0.08037642 0.011728327 0.0214978 -0.08773552
-0.0012116912 -0.15418205 -0.038286433 -0.041778825 -0.088525906 -0.15307526 -0.1303232 -0.19274546
0.17139602 0.11172148 -0.035526644 0.20596063 -0.116870135 -0.14477272 -0.039710157 -0.11604352
-0.013624074 -0.013780878 -0.15466566 0.10882453 -0.06651202 -0.049770392 -0.19425431 -0.11527691
0.06640261 0.12963402 -0.06552614 0.06710065 0.05074962 0.022448761 0.18371014 -0.07731763
-0.0052731456 -0.034241114 0.25610137 0.0051371567 0.08955533 -0.14112747 -0.09031585 -0.08009585
-0.2189731 -0.08736121 -0.016761545 -0.0023967912 0.0130213015 0.14228694 0.04885879 0.021184927
-0.14804663 0.074769445 0.059697855 -0.08693965 -0.2321031 -0.08780044 -0.0886121 0.063262716
-0.00096147595 -0.026291078 -0.04431385 -0.09611165 -0.2185618 -0.003046716 -0.0092598 0.037573755
-0.101032406 0.15244071 -0.029478792 -0.13096084 0.04510244 0.054994464 -0.14897329 0.00014289226
-0.28763846 -0.05721081 -0.025266597 -0.18095647 -0.2509215 -0.0037554363 -0.17815365 0.12759806
0.05421933 -0.10334872 -0.20569657 -0.0043162173 -0.14272144 0.13076487 0.15831724 -0.010145577
0.0248208 -0.018817468 -0.061314553 0.016535915 0.0005923347 0.055537786 -0.012553068 0.03221208
-0.17392686 -0.0021535782 0.14521873 -0.1551643 0.15748394 0.05478932 -0.11707275 -0.31216642
0.017215455 0.031986225 -0.021974513 -0.08134105 -0.083180234 0.25264937 -0.19612734 0.08482633
-0.027495658 -0.07562717 -0.14112595 0.005999039 0.106920324 -0.028655097 -0.1994555 -0.052910697
0.02089044 -0.062788546 -0.11714697 0.037129782 -0.0698946 -0.006423518 0.03420354 -0.07007705
-0.14312851 -0.12531184 -0.053953063 -0.0946717 0.0004772202 -0.08482923 0.084326245 0.10211789

fc2.bias f4 [84]
00000000: 702e 51bd 7ece b43e ee4a e3bd 90e5 2b3e
00000010: 6e73 5cbd 41de 17bd f538 ef3e 6566 2cbc
00000020: 82b3 803d 5569 33bd 8b53 e3ba cecb 34ba
00000030: 5f8f 05be 1fb9 3d3c f6ad 733e 6107 c2bd
00000040: 1b01 143f 6d20 063f 655c e0bd cb94 673d
00000050: 1c86 1f3e 34e7 cabd f5c1 c5bc bdd8 8b3e
00000060: 6c7a 123f d8f1 803e 0cae cdbd c3dc 723e
00000070: 4862 473e 2dd3 ad3e fb82 7ebd 10ff 673e
00000080: f876 eb3d dca7 403e 5f28 0a3e 3b7b 343f
00000090: 677b f9bd fb5f bb3d 7e82 b63e 5050 a83e
000000a0: 8453 5fbe 9fdc 913e 8980 a13d 53db 2e3e
000000b0: 1740 523e 3790 0b3e 657e a6bd a820 fb3e
000000c0: 45d2 443f 364e 8e3d 6290 4e3e 2641 ec3e
000000d0: 2cb3 87be 0f19 ef3e d47e c23e 56af bbbd
000000e0: 3846 b13e 929e 163d e189 0abe 063d f7bd
000000f0: 1e82 743e 19dc 353e d2f7 cd3d 465c 31bb
00000100: 2ecd a83d 95f7 aabd de2f af3e bcec 4dbd
00000110: e961 6b3e 5ef2 aa3e 740e dd3c 7161 a0bd
00000120: ec4c 103c 6d27 b2bd 7ddd c13e 85d3 c73e
00000130: 4ba8 3b3f a18b 713e 686e 5c3e 3de4 f43d
00000140: a7dd 25bd 6ba4 f03e ea38 ba3d e4c7 9f3e
-0.051069677 0.3531379 -0.11098276 0.1678679 -0.05382102 -0.037077192 0.46723142 -0.01052246
0.062842384 -0.043801624 -0.0017343623 -0.00068968243 -0.13042973 0.011579781 0.2379683 -0.09474064
0.57814187 0.5239323 -0.10955123 0.056538384 0.15578502 -0.0990738 -0.024140337 0.27313796
0.5721805 0.25184512 -0.100429624 0.23717026 0.19471085 0.33950177 -0.06213663 0.22655892
0.11497301 0.18814033 0.13491963 0.70500535 -0.1218174 0.09149166 0.35646433 0.32873774
-0.21809202 0.28488633 0.07885844 0.17075853 0.20532261 0.13629232 -0.081295766 0.49048352
0.76883346 0.06948511 0.20172265 0.46143454 -0.26503885 0.46698806 0.37987387 -0.09164302
0.34623885 0.03677232 -0.13529159 -0.12072186 0.23877761 0.17759742 0.100570336 -0.0027063056
0.0824226 -0.08348004 0.34216207 -0.050274596 0.22986569 0.33388036 0.02698443 -0.078310855
0.008807402 -0.08698926 0.37864295 0.39028564 0.7330367 0.2358842 0.21526492 0.119575955
-0.040494587 0.4700044 0.09092887 0.31207192

fc3.weight f4 [10, 84]
00000000: 8216 86bd 6d55 02be 7ab0 42bc 3224 9a3d
00000010: a6b8 e73d 27f2 56bd 43e7 51be 95d1 863e
00000020: 29c0 033e 96c2 3dbe d3eb b8bd bdb9 9fbe
00000030: 67ba 653d f9af 4e3d 7602 84be ae6e c43d
00000040: bee0 9cbe 78be 4d3d 5c61 293d cac6 593e
00000050: c5a4 ba3c b484 be3d 07f4 853d 0023 21be
00000060: c152 113e c910 143e 8cee 7f3d eed0 3e3b
00000070: 2a3e 76be 31cf 02be 3c5a 9e3d 650c bdbd
00000080: 2adf 713d 425d 96bd 9e70 e5bc 697d 66bd
00000090: 0d4d 4dbc d280 b63d 7aa2 cabd 7e10 993d
000000a0: 5464 523e 0fae 073e 08fa a93d 9241 b13e
000000b0: 40c2 5fbe 905e e93d 9ea3 6ebe 20a5 463e
000000c0: 9020 6fbd d421 f73d e666 f4bd 7661 4bbe
000000d0: 5a72 323e 8d50 67be ee51 773b 8466 ab3d
000000e0: dfaf 3b3e 7d3e cdbd 6302 4d3e 26a3 a8bb
000000f0: 21d7 d23d d87f 7a3e a877 983d 7580 ac3e
00000100: 9f40 f63c ed26 0b3e 6b65 a73c d91d 5dbd
00000110: 9ba4 7d3d e6c0 04be 3226 5dbe 7af9 c63d
00000120: 4194 fe3c f52a f0bd d008 35bd dbed 59bd
00000130: 4eac 8dbe ed3e cb3d dabd 9c3d a4a4 913d
00000140: 4c63 1a3d dd3d 9d3e da6b debc eb42 303d
00000150: 1d34 cc3d fb87 7abd c2d6 fe3d 15a0 e53b
00000160: 289e b93d 26db a13e 6b5e 34bd bf9f d6bd
00000170: e5d3 623e 5d0b 983c 8a3f 913e ff64 af3d
00000180: df44 2a3e 2c03 063e cb77 083e c031 c7bd
00000190: f5c7 9abe 8e08 1cbe cd29 8c3d 35bf e7bc
000001a0: 08f2 94bd e11b 873e f05d b63b 60f9 89be
000001b0: f3d1 2cbe 376c 17be ca80 0a3d 7790 1abe
000001c0: 1e6f f1bc 24a7 05bd 9639 973c fed7 073e
000001d0: c7b7 99bc b7af 343e 5dd3 57be 3103 cfbe
000001e0: d123 c93d 3448 04be 2500 63be 44ea 383e
000001f0: 950b d7bd 9686 a1bc 904e 7d3e de8c 9f3d
00000200: 3f8c 5c3e 928f 20bc 0e52 523e 2299 99be
00000210: 7ca6 83be c803 633e 2e39 723d b797 9dbc
00000220: feac a73d f689 313e d3eb 10be c460 213e
00000230: 8236 bbbe 502b 523c 828f 703e b0b4 bc3c
00000240: 1b38 73be e8cd 0e3b 1819 903d fcbf 0d3e
00000250: 61cb a93e 688c 4d3c a358 193c f704 1e3e
00000260: 1392 21be 8593 153c 7d6a e63a 356b 843e
00000270: ae73 8f3e 4aa3 d73c 339a cbbc 646f 03be
00000280: bb89 2ebe d53c 173e 702d 803c 3b04 803e
00000290: aa39 ec3d 579d 753e ce20 29bc 3b2f b6be
000002a0: ef0a efbc 4ce2 41be f482 c0bc bf31 963c
000002b0: c2ea 39bc b0d3 b0bc e151 473e 9123 ef3a
000002c0: 8162 9cbd 4e48 0d3e 1276 68bd ec5c aebd
000002d0: 0fb4 39bd 919f 923d 54df b23c 11c1 1e3e
000002e0: b991 453e 5ba6 40bb 88b9 6e3d a8da 0abe
000002f0: 7fc1 33be 5853 95bd f5e1 72bd 0ae5 5bbd
00000300: 5cb6 ad3c c1ee 673e 96a5 423e d4ff 833e
00000310: 533a 63ba a66e 333e 105d bd3c babe 6ebe
00000320: ce91 203c 1407 b1bd 302b 853e 87d9 2c3d
00000330: 34b2 ac3d 6347 213e 0fd9 8e3e 3fac 353e
00000340: f3fe 363e 7ab4 53bd a8d1 50bd cbee d03d
00000350: 5c1a 4abe e796 303c 4366 2d3e 2dbc 883e
00000360: d25f c53d ff01 dbbc 3e6d 2a3e d511 343e
00000370: 1795 9e3d cc76 433a f511 a83d 2e52 62be
00000380: 9396 4abd 2b79 17bd dd33 093e d3fb 713e
00000390: 4832 1b3e b375 a9bc d642 b83d 848a c73d
000003a0: 9e46 2dbe 03e6 b13d 3274 843d fc3c 2a3a
000003b0: 3320 ff3d 4365 093d e6c7 273e ee2b febd
000003c0: 9eff d1bd b0f8 54bc dee7 003e c9fd 06be
000003d0: c791 573e 7901 3cbe f167 c6bd bb9e e13c
000003e0: db4c 3e3d 8f14 80bd 19fb ecbd f364 373e
000003f0: 7bcf 04be 34ee 163e b16a 033e f936 8bbe
-0.06547262 -0.127279 -0.011882896 0.07526435 0.11314516 -0.05247703 -0.20498376 0.26331773
0.12866272 -0.1853126 -0.09029355 -0.31196395 0.05608597 0.05046079 -0.25783128 0.09591423
-0.30640215 0.050230473 0.041352615 0.21267238 0.022783646 0.09302655 0.06540685 -0.15736008
0.14191724 0.14459528 0.062483355 0.002911623 -0.24047151 -0.1277435 0.077320546 -0.0923088
0.059050716 -0.07342006 -0.028007802 -0.056271944 -0.012530577 0.08911289 -0.09894271 0.07473849
0.20546085 0.13249992 0.08299643 0.3462034 -0.21851444 0.113949895 -0.23304603 0.19398928
-0.058380663 0.12066999 -0.11933689 -0.19861397 0.17426434 -0.22589321 0.0037738043 0.08369163
0.18328808 -0.10021684 0.20020442 -0.005146402 0.10294939 0.24462831 0.074446976 0.33691755
0.03006011 0.13589068 0.020434102 -0.053983543 0.061924558 -0.1296421 -0.21596602 0.09715553
0.031076552 -0.117269434 -0.044197857 -0.053205352 -0.2767052 0.099241115 0.07653399 0.07111481
0.037692353 0.3071126 -0.027151037 0.043032568 0.09970877 -0.061164837 0.124433056 0.0070076087
0.09063369 0.3161251 -0.044035356 -0.10479688 0.22151144 0.018560106 0.2836879 0.08564185
0.16627835 0.13087147 0.13326947 -0.09726286 -0.3023068 -0.15237638 0.0684391 -0.028289417
-0.07272726 0.26388457 0.0055653974 -0.2694807 -0.16876964 -0.14787374 0.03381423 -0.15094171
-0.02947193 -0.0326301 0.018460076 0.13265988 -0.01876439 0.17645155 -0.21076722 -0.40432122
0.098212846 -0.12918168 -0.22168024 0.18058115 -0.10500256 -0.019717496 0.24737 0.0779054
0.21537875 -0.009799855 0.20539114 -0.29999644 -0.25712955 0.22169411 0.059136562 -0.019237382
0.081872925 0.17337784 -0.1415246 0.1575957 -0.36565024 0.012827709 0.23492244 0.023035377
-0.23751871 0.002179021 0.07036036 0.13842767 0.33162978 0.0125456825 0.009359512 0.15431581
-0.15778379 0.00912941 0.0017579343 0.25863042 0.28017944 0.02632298 -0.024853801 -0.12835461
-0.17044728 0.147693 0.015646666 0.25003228 0.11534436 0.23985802 -0.010322763 -0.3558291
-0.029180018 -0.18933982 -0.023499943 0.018334268 -0.0113474745 -0.021585315 0.19464828 0.0018244853
-0.07635976 0.13797113 -0.056753226 -0.08513817 -0.045337733 0.07159341 0.021835007 0.15503336
0.1929387 -0.002939603 0.058282405 -0.13559973 -0.17554282 -0.07291287 -0.05929752 -0.053685226
0.02120512 0.22649671 0.19008479 0.2578112 -0.0008668054 0.17522678 0.023115665 -0.23314944
0.009800388 -0.08643928 0.26009512 0.042199638 0.08432427 0.15749888 0.27899978 0.17741488
0.17870693 -0.051685788 -0.050981194 0.10201796 -0.19736618 0.010778165 0.16933541 0.26706067
0.09637417 -0.02673435 0.16643235 0.17584927 0.077432804 0.0007456362 0.0820655 -0.22101662
-0.049460005 -0.03698079 0.1339869 0.2363122 0.151559 -0.020686006 0.08997123 0.09743217
-0.1692147 0.086864494 0.06467475 0.0006494073 0.124573134 0.033543836 0.16384849 -0.12410723
-0.10253833 -0.012998745 0.1258845 -0.13182749 0.21051703 -0.18359937 -0.09687794 0.027541509
0.046460014 -0.06253921 -0.115713306 0.17909603 -0.12969773 0.14739305 0.12833668 -0.27190378

fc3.bias f4 [10]
00000000: 5f0f 68be 48c2 82bf bed7 d6be ea31 303f
00000010: c950 5a3f 5e37 323e 903e 913e 0525 9fbe
00000020: 2520 e53e 463f 84be
-0.22662114 -1.021554 -0.41961473 0.6882616 0.8527952 0.17403933 0.28368044 -0.3108293
0.44751087 -0.25829524
